model/electra_ann_model.pth (torch, 167399 bytes, 6 tensors)

fc1.weight f4 [128, 256]
0.148801 0.2130772 -0.47215754 0.08674715 0.18115897 0.331972 -0.34532547 -0.3064991
0.48190415 0.24387515 0.1342746 -0.13504833 -0.009718711 -0.13611852 -0.26734176 0.14021464
-0.2584383 0.19824582 0.3829144 -0.15426113 -0.050720654 -0.129881 0.23937894 0.70125115
-0.25334194 0.02336639 -0.07579633 0.50761783 -0.046174917 0.2818234 -0.12569888 0.18985815
0.3945049 -0.29782125 -0.8804757 0.08408135 0.09847881 -0.36006778 0.030230908 0.26428583
-0.15398924 0.10253465 -0.17060795 -0.06687762 0.17102055 -0.18389684 0.083391 -0.17122942
0.13762067 -0.0690224 0.34655353 -0.16562869 0.20313312 -0.2585303 -0.069291204 0.16226259
-0.0014665159 -0.36633173 -0.094595335 -0.67206335 -0.2636494 0.103215486 -0.09088984 -0.21717177
-0.45174527 0.69330657 -0.042286772 -0.32502484 0.23777404 0.042503487 0.14906128 -0.7286405
0.43929026 0.54887825 -0.18046512 -0.18477939 -0.3798563 0.28724346 -0.0055683316 -0.14560682
-0.2078209 -0.12310479 -0.1889575 0.05413712 -0.15455647 -0.54454064 -0.44752425 0.19831496
0.01756807 -0.49185616 -0.16665222 -0.5401417 0.34711695 0.7785157 0.36694804 0.022579988
0.03902345 0.17711182 -0.19672774 0.15038234 -0.024426952 -0.06971457 -0.5951958 0.038080696
0.21314208 0.23838533 0.12699583 0.06135935 -0.106188476 -0.02604073 0.0051929527 -0.2112117
-0.27617875 -0.28102013 0.5524213 -0.016411785 -0.48371524 -0.22015142 -0.8066358 0.15857361
-0.017111477 0.051503617 0.12709062 0.24627988 0.052293193 -0.35428298 0.43981224 0.3102554
-0.103416935 -0.3165361 -0.28928912 -0.8840517 -0.31558168 0.2485357 -0.21617882 -0.15318629
-0.07974473 0.008957298 -0.30437827 -0.21076988 0.20045644 -0.39018622 -1.016454 -0.035523303
-0.56491214 0.6344351 0.3809843 -0.2657243 -0.6071795 -0.115481876 0.086031765 0.19978549
-0.37272435 0.23681036 -0.09080297 0.18186727 -0.00419932 -0.03593713 0.3592198 0.040431958
-0.009127841 0.5616871 0.18101694 0.20150706 -0.01143367 -0.17522685 -0.11002839 0.37804133
-0.029204585 -0.19925748 0.25043768 0.10284697 0.23680423 0.30886406 -0.11415056 -0.0853837
-0.083197005 -0.16288467 0.4107001 0.3038781 -0.16350356 -0.24462558 0.27912882 -0.12616478
0.07120063 0.23422159 0.15639487 0.20673259 0.18689045 -0.5850211 -0.13868457 -0.2957468
-0.17930627 0.034720752 -0.37933728 0.33359045 -0.19767533 -0.29652077 0.4713007 0.34837365
-0.19988249 0.20378953 0.051363982 0.14199007 0.08399423 -0.4483469 0.21825859 0.18919061
0.046957277 -0.060728256 0.14332071 -0.0651558 0.09544355 0.39696532 -0.22639337 -0.031711992
0.043412507 -0.49597377 -0.29379228 0.38584962 0.10000451 0.2777873 -0.46093568 0.08552817
0.35296497 -0.2463285 0.1602192 -0.24214411 -0.7504217 0.21778819 -0.30694017 -0.07996995
-0.13976923 0.0788255 -0.08816928 -0.449059 -0.7359335 0.09878752 0.08832427 -0.18246506
0.3108453 -0.23425895 0.41801935 -0.40990052 -0.101599626 -0.056747947 -0.19186878 0.22609077
-0.5155416 0.21052006 0.25493032 0.6948489 0.32839072 0.42544556 0.16802801 0.015975958
00000000: 4a5f 183e e930 5a3e a2be f1be 7da8 b13d
00000010: bd81 393e 3cf8 a93e 80ce b0be 73ed 9cbe
00000020: 24bc f63e 68ba 793e 487f 093e 1c4a 0abe
00000030: 3a3b 1fbc a762 0bbe 05e1 88be 6d94 0f3e
00000040: 0652 84be f400 4b3e 5b0d c43e a1f6 1dbe
00000050: 76c0 4fbd 86ff 04be c11f 753e 3285 333f
00000060: 09b6 81be df6a bf3c 1b3b 9bbd 3ef3 013f
00000070: e921 3dbd 284b 903e 35b7 00be 2d6a 423e
00000080: 8cfc c93e 077c 98be db66 61bf d832 ac3d
00000090: 42af c93d ce5a b8be cfa6 f73c 7950 873e
000000a0: 5baf 1dbe b0fd d13d dab3 2ebe 22f7 88bd
000000b0: 0320 2f3e 744f 3cbe e7c8 aa3d c456 2fbe
000000c0: 6fec 0c3e 9e5b 8dbd 776f b13e 919a 29be
000000d0: 2102 503e 155e 84be 8ce8 8dbd 2a28 263e
000000e0: 1c38 c0ba d58f bbbe 33bb c1bd 580c 2cbf
000000f0: 0efd 86be a462 d33d 7424 babd 4762 5ebe
00000100: 284b e7be 8a7c 313f e534 2dbd a869 a6be
00000110: 0a7b 733e 2318 2e3d 85a3 183e 2f88 3abf
00000120: a7ea e03e 4983 0c3f d9cb 38be cf36 3dbe
00000130: 867c c2be 9311 933e 8d76 b6bb f419 15be
00000140: 01cf 54be 5d1e fcbd 137e 41be e2be 5d3d
00000150: 0d44 1ebe 0467 0bbf e621 e5be 1413 4b3e
00000160: eaea 8f3c 92d4 fbbe e1a6 2abe ba46 0abf
00000170: 50b9 b13e ce4c 473f 9de0 bb3e abf9 b83c
00000180: 0ed7 1f3d cd5c 353e ff72 49be d4fd 193e
00000190: 081b c8bc 83c6 8ebd c05e 18bf 81fa 1b3d
000001a0: eb41 5a3e 491b 743e 320b 023e f153 7b3d
000001b0: 5879 d9bd 5e53 d5bc a529 aa3b e147 58be
000001c0: 4d67 8dbe dfe1 8fbe 7b6b 0d3f 0272 86bc
000001d0: 86a9 f7be 606f 61be af7f 4ebf 1f61 223e
000001e0: 5e2d 8cbc 75f5 523d 0b24 023e cb30 7c3e
000001f0: 6331 563d 9464 b5be 122f e13e ccd9 9e3e
00000200: 42cc d3bd 0511 a2be b41d 94be 3651 62bf
00000210: ec93 a1be 2480 7e3e fb5d 5dbe dedc 1cbe
00000220: 3451 a3bd a1c1 123c 78d7 9bbe 0fd4 57be
00000230: 7444 4d3e 7dc6 c7be 2a1b 82bf e280 11bd
00000240: 159e 10bf 576a 223f 6010 c33e 040d 88be
00000250: 1e70 1bbf c381 ecbd 6c31 b03d 9194 4c3e
00000260: bad5 bebe 6a7e 723e e8f6 b9bd 6a3b 3a3e
00000270: 739a 89bb d032 13bd a8eb b73e fb9b 253d
00000280: f18c 15bc baca 0f3f 815c 393e de57 4e3e
00000290: 4a54 3bbc ab6e 33be 9156 e1bd a28e c13e
000002a0: 743e efbc 270a 4cbe 5e39 803e 6fa1 d23d
000002b0: cf7c 723e 6e23 9e3e c5c7 e9bd a6dd aebd
000002c0: 3163 aabd 3dcb 26be 4947 d23e e995 9b3e
000002d0: 7a6d 27be 217f 7abe f9e9 8e3e 5731 01be
000002e0: a3d1 913d c9d7 6f3e fa25 203e b5b1 533e
000002f0: 3660 3f3e f1c3 15bf 5403 0ebe 206c 97be
00000300: 109c 37be 5937 0e3d 7f38 c2be 5ecc aa3e
00000310: 676b 4abe 92d1 97be 534e f13e 085e b23e
00000320: ffad 4cbe 34ae 503e 0a63 523d d865 113e
00000330: 2b05 ac3d ba8d e5be 2e7f 5f3e 2fbb 413e
00000340: 4656 403d 31be 78bd aac2 123e 6770 85bd
00000350: e877 c33d 0a3f cb3e aad3 67be 6fe4 01bd
00000360: 50d1 313d 46f0 fdbe f16b 96be 158e c53e
00000370: 2acf cc3d 233a 8e3e c3ff ebbe 6529 af3d
00000380: d3b7 b43e 8a3d 7cbe 8110 243e a0f4 77be
00000390: a31b 40bf de03 5f3e 4327 9dbe 49c7 a3bd
000003a0: aa1f 0fbe 446f a13d 1892 b4bd 10eb e5be
000003b0: 2366 3cbf 1c51 ca3d 5be3 b43d 1fd8 3abe
000003c0: 1d27 9f3e 94e1 6fbe a206 d63e 7bde d1be
000003d0: 7713 d0bd 8970 68bd 4079 44be 5784 673e
000003e0: 89fa 03bf 9292 573e 3a86 823e 9ee1 313f
000003f0: d422 a83e 00d4 d93e 890f 2c3e 03e0 823c

fc1.bias f4 [128]
-0.013393943 -0.041759454 -0.043967184 -0.11366541 0.12661716 0.014235436 -0.07446981 -0.13472952
-0.0892506 -0.118788466 -0.056261916 -0.051767234 -0.16470368 -0.105126806 -0.0841248 -0.048902296
-0.10647772 0.02303819 -0.06145641 0.022148393 -0.1465729 -0.07379828 -0.066367775 0.03083123
0.04692798 0.09538551 0.007343482 0.013608706 0.011547931 0.011168406 -0.05826146 -0.023124676
-0.1280601 -0.06972514 -0.06016171 -0.10191176 -0.009205567 -0.1271471 -0.036474414 -0.0024407066
-0.014870154 -0.041289926 -0.06481433 -0.07256384 0.088892184 -0.09572363 -0.03547521 -0.009003561
-0.10550385 -0.15682994 -0.14623477 -0.0070281154 -0.025311658 0.012500512 -0.014656745 0.020433811
-0.081801124 -0.08341408 -0.05392956 -0.060621113 -0.026864065 -0.08553966 0.028635917 -0.033594
0.020093286 -0.053893402 -0.11561792 -0.037998654 0.03420107 -0.10604982 -0.046672877 0.07185762
-0.04761626 -0.07929192 -0.011469595 0.019598925 -0.009764948 -0.030206542 -0.056050297 -0.12259957
-0.026905524 0.008315565 -0.2245488 -0.031072559 -0.06936808 0.0072721764 -0.06340141 0.069093496
-0.059700552 0.061119016 -0.06549683 -0.0032889294 -0.023578875 0.038038038 0.00019148615 -0.049827702
0.027138703 0.055657923 -0.048448764 -0.061794385 0.021326495 -0.026255593 -0.111237526 -0.015593704
0.12165968 0.07026763 -0.008815447 -0.06366419 0.043610733 -0.01713624 -0.06186666 -0.05390452
-0.049263883 -0.061886884 0.11379963 -0.062603846 -0.07075094 -0.026766893 -0.044273175 -0.012197026
-0.0828295 -0.06251096 0.0057975166 0.0052373656 -0.04168026 -0.07760029 -0.017213177 -0.10344928
00000000: 4572 5bbc f60b 2bbd ef16 34bd 69c9 e8bd
00000010: eea7 013e bf3b 693c a183 98bd 89f6 09be
00000020: 05c9 b6bd 5e47 f3bd e572 66bd e109 54bd
00000030: 15a8 28be b94c d7bd a049 acbd c64d 48bd
00000040: fe10 dabd 96ba bc3c b7b9 7bbd 8c70 b53c
00000050: 3517 16be 8d23 97bd d4eb 87bd c791 fc3c
00000060: 8e37 403d 7a59 c33d 98a1 f03b 0df7 5e3c
00000070: 8833 3d3c b1fb 363c 92a3 6ebd f66f bdbc
00000080: 3022 03be 0ecc 8ebd 206c 76bd 1db7 d0bd
00000090: f2d2 16bc d932 02be 3266 15bd 43f4 1fbb
000000a0: f2a1 73bc a01f 29bd 60bd 84bd 5a9c 94bd
000000b0: 1b0d b63d c00a c4bd 744e 11bd ac83 13bc
000000c0: 6712 d8bd 0798 20be 91be 15be 1b4c e6bb
000000d0: 655a cfbc f3ce 4c3c d822 70bc cf64 a73c
000000e0: 5987 a7bd 00d5 aabd 3ee5 5cbd d84d 78bd
000000f0: 0712 dcbc 6b2f afbd df95 ea3c dd99 09bd
00000100: ad9a a43c 54bf 5cbd 17c9 ecbd 7aa4 1bbd
00000110: 6c16 0c3d a630 d9bd 0f2c 3fbd 162a 933d
00000120: 4409 43bd cd63 a2bd f8ea 3bbc ed8d a03c
00000130: 29fd 1fbc b673 f7bc ff94 65bd 7c15 fbbd
00000140: f968 dcbc 023e 083c 1ff0 65be e18b febc
00000150: da10 8ebd 704b ee3b 99d8 81bd e480 8d3d
00000160: 9188 74bd ef57 7a3d 3423 86bd 148b 57bb
00000170: 7c28 c1bc c6cd 1b3d acc9 4839 2218 4cbd
00000180: fc51 de3c 90f9 633d 3672 46bd 1c1c 7dbd
00000190: e7b4 ae3c f815 d7bc 80d0 e3bd bc7c 7fbc
000001a0: b628 f93d 7ae8 8f3d aa6e 10bc 5f62 82bd
000001b0: 2ba1 323d 4d61 8cbc e567 7dbd fcca 5cbd
000001c0: edc8 49bd 1a7d 7dbd c80f e93d 7236 80bd
000001d0: dee5 90bd 3e46 dbbc ca57 35bd 09d6 47bc
000001e0: 83a2 a9bd bf05 80bd 18f9 bd3b 359e ab3b
000001f0: ecb8 2abd e7ec 9ebd a602 8dbc 37dd d3bd

fc2.weight f4 [64, 128]
-0.10894991 -0.2658046 -0.042757645 0.07543677 0.16764012 -0.07420006 0.38349098 0.072478615
-0.1391859 0.06166129 -0.038500946 0.016925327 -0.34176928 0.118862376 0.53235096 0.005141331
0.060909532 0.25262216 -0.0077631907 -0.0808566 0.029186485 -0.3240144 0.055821378 -0.5495392
-0.39572424 -0.2026679 0.059452772 -0.30173826 0.063832685 -0.027999906 0.2194473 -0.62426275
0.05504205 0.05345611 0.048880108 -0.29640967 -0.014919475 -0.12929428 -0.014025132 -0.3300889
-0.08026893 0.04822399 0.004124591 0.5018384 0.12632369 0.10743426 0.063248575 0.06762718
0.12819321 0.58158636 -0.04727656 -0.23906505 -0.00921263 -0.1177777 -0.07204867 -0.13165374
0.047341675 0.02672018 0.11167494 -0.06597192 -0.22134113 0.009504706 -0.4103318 0.051528033
0.020260634 0.1695085 -0.015471213 0.12645185 -0.33706665 0.33383822 0.14315449 0.3454846
-0.008808071 -0.16940446 -0.3979766 -0.074236475 0.0015808812 0.45220283 -0.0074645397 0.369812
-0.47622904 -0.6203162 0.067114584 -0.017269624 0.07039294 -0.0016042069 -0.23489293 0.30710074
0.050337937 0.5858138 0.26973343 0.070270754 0.102321446 -0.28215754 -0.19045782 -0.17920113
0.12007886 0.17285384 -0.11575173 0.26473176 0.11101034 -0.34951884 0.07360049 0.20078112
0.14071512 -0.097359434 0.1645303 0.031475753 -0.00047783242 0.079145074 0.18007912 -1.412242
0.07013471 -0.021700444 0.33040687 -0.10814305 -0.34964335 0.060727283 -0.0220938 -0.11902836
-0.016471136 0.06143057 0.6925441 0.08897178 -0.03176444 0.118049234 -0.77265334 0.0741017
-0.46240017 0.5138082 -0.056058604 -0.06363437 0.3385389 -0.04488967 -0.7261422 0.54601556
0.13445556 -0.027824154 0.06116356 -0.04012661 0.15368249 0.11249242 -0.5567722 -0.076441
0.05147414 -0.22661623 -0.08267882 0.039388943 -0.013459866 -0.061861616 0.007066734 0.16708435
-0.08007287 0.18280253 -0.061229073 0.14077824 0.047392476 0.031313658 0.16355476 -0.47003984
0.28770125 -0.06642442 0.06416038 -0.7528408 -0.018746741 -0.17808783 -0.06755968 0.15615396
0.21421188 -0.07245611 0.07677 0.20157231 0.1077241 -0.5855997 -0.0006317511 0.025930261
-1.4619498 -1.3175102 0.42187783 -0.68241024 -0.28200895 -0.060955577 -0.07357256 0.12095013
0.16201164 0.04496619 0.0055253194 0.04613504 0.2600448 0.104461096 -0.11296872 -0.019365428
0.03730394 -0.055248775 0.011122137 0.035410862 0.1605655 -0.20861538 -0.13286313 -0.5969886
-0.04955266 0.36445862 0.17321533 0.13895784 -0.06403509 -0.13821892 0.018590957 -0.07339955
-0.17197953 0.41250014 0.11472485 0.1005868 0.07623427 0.03905361 -0.9093365 -0.18894808
0.06822943 -0.5726197 -0.4493768 0.06308078 -0.17143714 0.13604239 -0.23276655 0.68374246
-0.4898266 0.1783962 -0.30037233 0.11246389 0.06720391 0.70855016 -0.027399944 0.11653403
-0.18781832 -0.08751441 -0.3142655 0.10966485 -0.012932436 0.21444584 -0.1329489 -0.6179621
0.050032627 0.089385584 -0.15217297 -0.058478232 0.06722557 -0.038290106 0.04900338 0.09033284
0.00030085564 0.70747983 -0.11870015 -0.13100395 0.06377477 -0.93321204 -0.33599457 -0.1561691
00000000: 2121 dfbd 8a17 88be a422 2fbd 987e 9a3d
00000010: daa9 2b3e 33f6 97bd ee58 c43e ab6f 943d
00000020: c086 0ebe 8c90 7c3d 2bb3 1dbd fca6 8a3c
00000030: 62fc aebe 1e6e f33d 2748 083f 9c78 a83b
00000040: 467c 793d b157 813e 5d62 febb 2598 a5bd
00000050: 7f18 ef3c 37e5 a5be f5a4 643d 9aae 0cbf
00000060: 5e9c cabe 2d88 4fbe c084 733d 707d 9abe
00000070: b6ba 823d 0f60 e5bc cbb6 603e afcf 1fbf
00000080: c673 613d cbf4 5a3d 8236 483d 02c3 97be
00000090: d070 74bc b865 04be abc9 65bc 6a01 a9be
000000a0: 0964 a4bd 8586 453d 9427 873b 7b78 003f
000000b0: ff5a 013e 7e06 dc3d 7888 813d 1e80 8a3d
000000c0: 1545 033e d8e2 143f 11a5 41bd 78cd 74be
000000d0: 92f0 16bc 6f35 f1bd 418e 93bd 3dd0 06be
000000e0: 58e9 413d 47e4 da3c d5b5 e43d 491c 87bd
000000f0: 40a7 62be a0b9 1b3c 0217 d2be 0f0f 533d
00000100: a1f9 a53c a393 2d3e f87a 7dbc 987c 013e
00000110: 0094 acbe d8ec aa3e 1797 123e 5ce3 b03e
00000120: ba4f 10bc 5d78 2dbe 97c3 cbbe 4b09 98bd
00000130: 9235 cf3a 2187 e73e 1999 f4bb 0058 bd3e
00000140: 4bd4 f3be 0bcd 1ebf 5f73 893d 0779 8dbc
00000150: 2c2a 903d 4044 d2ba c687 70be 4f3c 9d3e
00000160: 272f 4e3d e5f7 153f 801a 8a3e 1dea 8f3d
00000170: e88d d13d f476 90be 6007 43be 8080 37be
00000180: e8eb f53d 9900 313e 3e0f edbd ec8a 873e
00000190: 6459 e33d 22f4 b2be dbbb 963d 9199 4d3e
000001a0: a017 103e 6264 c7bd a27a 283e b8ec 003d
000001b0: 9585 fab9 d016 a23d a966 383e 59c4 b4bf
000001c0: c9a2 8f3d 21c5 b1bc 172b a93e 1a7a ddbd
000001d0: 7404 b3be 2cbd 783d 0ffe b4bc 24c5 f3bd
000001e0: 7aee 86bc 9f9e 7b3d 924a 313f d636 b63d
000001f0: 6e1b 02bd ccc3 f13d 9ccc 45bf a2c2 973d
00000200: b7bf ecbe ef88 033f b59d 65bd bd52 82bd
00000210: f854 ad3e 3bde 37bd 75e4 39bf adc7 0b3f
00000220: b8ae 093e 7bef e3bc a486 7a3d cd5b 24bd
00000230: f15e 1d3e 6d62 e63d 9f88 0ebf 198d 9cbd
00000240: 8cd6 523d 160e 68be 8353 a9bd 4d56 213d
00000250: c586 5cbc 9b62 7dbd 1090 e73b 2918 2b3e
00000260: 3ffd a3bd 9630 3b3e 56cb 7abd 2c28 103e
00000270: 9d1e 423d c042 003d e67a 273e 10a9 f0be
00000280: 944d 933e 8709 88bd 8466 833d 2dba 40bf
00000290: c492 99bc a85c 36be bb5c 8abd d3e6 1f3e
000002a0: 5c5a 5b3e de63 94bd 9739 9d3d f968 4e3e
000002b0: 749e dc3d dde9 15bf 199c 25ba b36b d43c
000002c0: 2c21 bbbf 2da4 a8bf 5f00 d83e 70b2 2ebf
000002d0: 7a63 90be 8eac 79bd 36ad 96bd b4b4 f73d
000002e0: 61e6 253e 782e 383d bd0d b53b 18f8 3c3d
000002f0: 9824 853e b3ef d53d 255c e7bd 3fa4 9ebc
00000300: 04cc 183d 8a4c 62bd a039 363c fb0a 113d
00000310: 486b 243e 459f 55be 460d 08be 3fd4 18bf
00000320: bbf7 4abd 529a ba3e 5c5f 313e f74a 0e3e
00000330: d424 83bd 4389 0dbe 104c 983c 8152 96bd
00000340: 671b 30be 3833 d33e ddf4 ea3d 7400 ce3d
00000350: b720 9c3d aef6 1f3d 47ca 68bf 9b7b 41be
00000360: dfbb 8b3d 3497 12bf b714 e6be 7f30 813d
00000370: 388d 2fbe b24e 0b3e 5b5a 6ebe bf09 2f3f
00000380: 8dca fabe 7ead 363e 67ca 99be 7853 e63d
00000390: 34a2 893d 8b63 353f d975 e0bc 65a9 ee3d
000003a0: 7253 40be c13a b3bd 68e7 a0be f797 e03d
000003b0: 91e2 53bc b197 5b3e c223 08be c432 1ebf
000003c0: 03ef 4c3d ca0f b73d 3bd3 1bbe df86 6fbd
000003d0: 8fad 893d 16d6 1cbd c5b7 483d 6d00 b93d
000003e0: 29bc 9d39 661d 353f 1019 f3bd e625 06be
000003f0: 599c 823d fce6 6ebf 7b07 acbe cbea 1fbe

fc2.bias f4 [64]
0.05619805 -0.0019713237 -0.079416335 0.021962443 0.05359768 -0.0596226 -0.06501513 -0.03524324
0.10313067 0.030118631 -0.047611117 -0.16235472 0.15328053 0.035921782 -0.014675879 -0.07018762
0.12909481 0.23686299 -0.13360505 -0.16358905 0.09583028 0.10959879 0.13153294 0.092702895
0.0022836572 0.20688774 -0.05339563 -0.1237497 0.0015594695 0.16936287 0.096863024 0.036266953
0.27900282 0.19287455 -0.2552 0.098830424 0.13841233 0.020456772 -0.05969472 0.006359794
-0.27885503 -0.066368796 -0.022907069 0.080388196 -0.029816087 -0.14396428 0.12472099 -0.2558135
0.24726415 -0.040933743 -0.053505804 -0.012297011 -0.08161104 0.14210327 -0.16333437 0.15888879
-0.20390517 -0.0023959323 -0.13595454 -0.05310306 0.32401884 -0.08575546 -0.24718791 0.24172033
00000000: ed2f 663d 5331 01bb 08a5 a2bd 95ea b33c
00000010: 3e89 5b3d d436 74bd a726 85bd 375b 10bd
00000020: 2c36 d33d 59bb f63c e003 43bd 5140 26be
00000030: 92f5 1c3e b822 133d 1973 70bc 87be 8fbd
00000040: 6e31 043e 368c 723e c3cf 08be e383 27be
00000050: aa42 c43d 5575 e03d 92b0 063e 04db bd3d
00000060: 69a9 153b 61da 533e 60b5 5abd 7c70 fdbd
00000070: 1d67 cc3a 766d 2d3e 1f60 c63d a88c 143d
00000080: 75d9 8e3e e880 453e 93a9 82be 9b67 ca3d
00000090: f6bb 0d3e f694 a73c 7382 74bd d265 d03b
000000a0: 16c6 8ebe 5dec 87bd 9ba7 bbbc 91a2 a43d
000000b0: de40 f4bc 5f6b 13be b86d ff3d fdf9 82be
000000c0: d032 7d3e 24aa 27bd e728 5bbd 6779 49bc
000000d0: b023 a7bd 8583 113e 2041 27be beb3 223e
000000e0: 84cc 50be 1305 1dbb ab37 0bbe 9882 59bd
000000f0: cce5 a53e 8fa0 afbd d41e 7dbe 8985 773e

fc3.weight f4 [2, 64]
-0.16079903 0.3917026 0.87230825 0.109764405 0.97128683 0.28321597 0.05180263 -0.5794812
-0.16719097 -0.79151464 -1.6073135 -0.7891142 0.00044601428 -0.9134179 -0.0633756 0.8988747
0.4384958 -0.20986085 0.02561163 -0.019808598 0.26107806 -0.45356217 0.39105207 -0.25008655
-0.33807555 0.4692238 0.095950074 -0.0094414195 -0.0127301905 -0.3207736 -0.4478661 0.5043948
0.33586738 0.27710354 -0.8646832 -0.02474561 -0.100761846 0.4508754 0.29672658 -0.17232744
-1.1018695 0.2189593 0.055027254 -0.22874036 0.57951844 -0.39180675 0.6466158 -0.89655256
0.17590074 0.38275933 0.58201516 -1.1823457 0.7088077 0.095183454 0.24502477 -0.49548215
-0.9699895 -0.30415285 -0.010660018 -0.67865956 -0.11817754 -0.102040365 -1.5428126 1.0354596
0.13111892 -0.21545886 -0.9172276 -0.053831246 -0.92911583 -0.3664504 -0.031312764 0.6114249
0.156434 0.9328775 1.4821728 0.6837649 -0.14953434 0.8943124 -0.067789294 -0.8443807
-0.4214341 0.24518676 -0.011105889 -0.027444478 -0.33502552 0.25950068 -0.3465522 0.068383396
0.41537625 -0.5127737 -0.112523116 0.03193992 0.005597473 0.32138383 0.46691328 -0.55280024
-0.31020522 -0.23283112 0.9590148 0.078969285 0.085928075 -0.40437758 -0.21877371 0.12779796
1.0828394 -0.19310004 -0.06308797 0.21818854 -0.5205411 0.24224551 -0.75146496 0.90740633
-0.20207815 -0.30532786 -0.7206232 1.2836664 -0.79240805 -0.18865423 -0.23550022 0.41509327
1.0599293 0.37353903 0.0036828136 0.66377294 0.33278656 -0.07093847 1.6779035 -0.88168705
00000000: 80a8 24be 3e8d c83e 984f 5f3f 29cc e03d
00000010: 41a6 783f af01 913e ff2e 543d e158 14bf
00000020: 1c34 2bbe b4a0 4abf 73bc cdbf 6303 4abf
00000030: 06d7 e939 c1d5 69bf 11cb 81bd a71c 663f
00000040: 8682 e03e c3e5 56be 7bcf d13c a445 a2bc
00000050: 06ac 853e 4d39 e8be fa37 c83e 580b 80be
00000060: 3d18 adbe 1a3e f03e 7981 c43d 2fb0 1abc
00000070: 4a92 50bc 703c a4be b54e e5be 0520 013f
00000080: cff6 ab3e 84e0 8d3e e15b 5dbf 4eb7 cabc
00000090: 3a5c cebd 24d9 e63e 8cec 973e 9b76 30be
000000a0: 0f0a 8dbf de36 603e 4264 613d ea3a 6abe
000000b0: 525b 143f e59a c8be 9d88 253f 7884 65bf
000000c0: 531f 343e 08f9 c33e f2fe 143f 1b57 97bf
000000d0: 6c74 353f 8bef c23d c6e7 7a3e d6af fdbe
000000e0: 3b51 78bf ecb9 9bbe 5ba7 2ebc a2bc 2dbf
000000f0: 1107 f2bd 8afa d0bd e27a c5bf f189 843f
00000100: 0a44 063e 3fa1 5cbe 6ecf 6abf 277e 5cbd
00000110: 89da 6dbf 639f bbbe d041 00bd 5886 1c3f
00000120: 3c30 203e 0fd1 6e3f d7b7 bd3f 370b 2f3f
00000130: 881f 19be a8f1 643f 1dd5 8abd 5529 58bf
00000140: 36c6 d7be 3d12 7b3e 7af5 35bc 3ed3 e0bc
00000150: 7788 abbe 46dd 843e 4a6f b1be 980c 8c3d
00000160: 32ac d43e 2345 03bf 8572 e6bd 6fd3 023d
00000170: 026b b73b 6c8c a43e 420f ef3e 5184 0dbf
00000180: 38d3 9ebe 486b 6ebe fe81 753f a6ba a13d
00000190: 0ffb af3d 940a cfbe 3706 60be 78dd 023e
000001a0: 7b9a 8a3f 04bc 45be 4434 81bd d16c 5f3e
000001b0: 2e42 05bf 350f 783e 0260 40bf c84b 683f
000001c0: 93ed 4ebe ef53 9cbe c37a 38bf 2e4f a43f
000001d0: 41db 4abf 932e 41be f826 71be 1b87 d43e
000001e0: c3ab 873f 8240 bf3e 5c5b 713b 06ed 293f
000001f0: 0063 aa3e 3048 91bd 8bc5 d63f 3eb6 61bf

fc3.bias f4 [2]
-0.09154322 -0.08798623
00000000: 037b bbbd 2032 b4bd
