model/sbert_ann_model.pth (torch, 429527 bytes, 6 tensors)

fc1.weight f4 [128, 768]
0	0x3cb1fe77	0.021727784
1	0x3d129729	0.03578869
2	0xbd378f00	-0.04481411
3	0xbf3d05a7	-0.7383675
4	0x3e499015	0.19683869
5	0x3d022199	0.031770322
6	0x3e162fb7	0.1466664
7	0x3db53642	0.088482395
8	0x3f184d5a	0.5949303
9	0x3e614829	0.22000183
10	0xbe53ea38	-0.20694816
11	0x3e111d2b	0.14171283
12	0xbeeef224	-0.46669114
13	0xbf465c9b	-0.77485055
14	0x3badd064	0.005304383
15	0xbe807fc9	-0.25097492
16	0x3e9e8df8	0.3096769
17	0xbd8583a8	-0.06519252
18	0x3e52ced0	0.20586705
19	0x3e1da475	0.15394767
20	0xbea1b074	-0.31579936
21	0x3dd45f4e	0.103697404
22	0xbf3bd6c0	-0.7337456
23	0xbe9b076f	-0.3027911
24	0xbcb67216	-0.022271197
25	0xbbb2b6f6	-0.0054539395
26	0x3df98ab0	0.12184656
27	0xbe3091b7	-0.17243086
28	0xbe524852	-0.205354
29	0xbe47286f	-0.19449018
30	0x3e0cd437	0.13752829
31	0xbe6615ed	-0.22469302
32	0xbe5a11f4	-0.21295911
33	0xbe7f9051	-0.24957396
34	0x3db7d09c	0.08975336
35	0x3e25155c	0.16121429
36	0xbea15beb	-0.3151544
37	0xbd8fa506	-0.070138976
38	0xbc49352b	-0.012280743
39	0xbe9fd50c	-0.3121723
40	0x3e038fd9	0.12847842
41	0xbe7048bd	-0.23465247
42	0x3c1edaef	0.0096957525
43	0x3d0261a7	0.03183141
44	0xbe83e797	-0.25762627
45	0xbdbbdc9b	-0.091729365
46	0xbd1e4baa	-0.038646378
47	0xbd091a5e	-0.03347241
48	0x3db8b45b	0.09018775
49	0x3e0d84c3	0.13820176
50	0xbe617572	-0.22017458
51	0x3e9f1f5a	0.31078607
52	0xbdcadf2a	-0.099058464
53	0xbaa90072	-0.001289381
54	0xbed1fee0	-0.41014767
55	0xbe006816	-0.12539706
56	0x3b7437c6	0.003726469
57	0xbdadabaf	-0.08480012
58	0xbe690c39	-0.22758569
59	0xbcb75de3	-0.022383636
60	0x3d6faf09	0.058516536
61	0xbd97dca2	-0.07415129
62	0x3eb62e41	0.35582164
63	0x3d2269d6	0.039651714
64	0xbd90f13b	-0.07077261
65	0xbe857c81	-0.2607155
66	0x3e9ef31c	0.31044853
67	0x3e873808	0.26409936
68	0x3e054d3e	0.13017747
69	0x3d9606e8	0.07325536
70	0x3dcc4c2a	0.09975465
71	0x3d0e366d	0.034719873
72	0xbdd15d99	-0.102229305
73	0x3da80508	0.08204085
74	0xbe563b31	-0.20921017
75	0xbe7f77d4	-0.24948055
76	0xbf084178	-0.532249
77	0xbe024194	-0.12720329
78	0xbc7b811b	-0.015350605
79	0x3e9f6455	0.31131235
80	0xbd95d0b3	-0.07315197
81	0xbe5b1310	-0.2139399
82	0x3e09e32b	0.13465564
83	0x3d0f6cb5	0.03501578
84	0xbc58c7de	-0.013231246
85	0x3d0afeed	0.033934522
86	0x3e9a53d4	0.3014208
87	0x3e431a8e	0.19053099
88	0xbeba5c03	-0.36398324
89	0xbd916748	-0.070997775
90	0xbdf4637b	-0.11933037
91	0x3e57d12b	0.21075885
92	0xbeaa5e99	-0.33275297
93	0x3ea5d353	0.3238779
94	0x3e93b89b	0.2885178
95	0x3ebb5906	0.36591357
96	0xbef404f0	-0.47660017
97	0xbc95937b	-0.0182588
98	0x3ef566df	0.47930047
99	0xbda6f524	-0.081522256
100	0xbd9ae056	-0.0756232
101	0xbf0b3b57	-0.5438742
102	0x3e08e8b2	0.13370016
103	0xbf4bb86e	-0.7957829
104	0xbe0a87e6	-0.13528404
105	0x3e9a0525	0.3008205
106	0x3e453a2d	0.19260474
107	0xbb8aac08	-0.0042319335
108	0xbdc68830	-0.096939445
109	0xbe4fcc84	-0.2029286
110	0x3e5da9fe	0.21646878
111	0xbc3f2f23	-0.011668953
112	0x3eb4538e	0.35219997
113	0x3d684b93	0.0567127
114	0x3f09c162	0.53810704
115	0x3e3b006c	0.1826188
116	0x3d9c3f2f	0.07629239
117	0xbdd6d6ed	-0.104902126
118	0x3e2c97bf	0.16854762
119	0xbc0c1f1b	-0.008552338
120	0x3dd6a6e3	0.1048105
121	0xbcccadff	-0.024985312
122	0xbe4676b3	-0.19381218
123	0x3caaeceb	0.020864924
124	0x3d4d3716	0.050101362
125	0x3db2719b	0.08713075
126	0x3dbd10d2	0.09231724
127	0xbe15bb90	-0.1462233
128	0x3d7f37b5	0.062308986
129	0xbf20190e	-0.6253823
130	0xbe6ed3c4	-0.2332297
131	0x3c783577	0.015149466
132	0x3e12801a	0.1430668
133	0x3e72ef9a	0.23724213
134	0xbe139421	-0.14411975
135	0x3d15ef0c	0.036604926
136	0xbe98928a	-0.297993
137	0x3decbdc8	0.115596354
138	0x3ee392d6	0.44447964
139	0x3e6d964e	0.23201868
140	0x3da8e1d1	0.08246196
141	0xbdfcbde1	-0.12340904
142	0x3e257e18	0.16161382
143	0x3e7f3e1c	0.24926037
144	0xbc970a7b	-0.018437615
145	0xbe672ae5	-0.22574957
146	0xbd0f74e1	-0.035023574
147	0xbafc3809	-0.0019242774
148	0xbd824de9	-0.063625164
149	0x3e8722c4	0.26393712
150	0xbcae8ffe	-0.021308895
151	0xbe30ae46	-0.1725398
152	0x3d332793	0.043738913
153	0xbd912838	-0.07087749
154	0xbcd663dc	-0.026170664
155	0xbd6bb837	-0.057548728
156	0xbda4b60d	-0.08042536
157	0xbdbb9f28	-0.09161216
158	0x3dc02fcb	0.09384116
159	0xbe391839	-0.18075646
160	0x3eaf885b	0.34283718
161	0xbdaf28f1	-0.08552731
162	0xbdd66d06	-0.10470013
163	0xbdd3ce4f	-0.103420846
164	0xbe42e768	-0.19033587
165	0x3e4717d2	0.1944268
166	0x3cdac1ab	0.026703676
167	0x3eb4edaa	0.35337573
168	0x3e2b09f0	0.1670301
169	0x3d20d9a9	0.039270077
170	0x3e86590e	0.26239818
171	0xbe0d0fd2	-0.13775566
172	0xbaa1a315	-0.0012331927
173	0x3f19a487	0.60016674
174	0x3d872293	0.065983914
175	0x3dfb43ad	0.122687675
176	0x3ea9a1fd	0.331314
177	0xbe002bf0	-0.12516761
178	0x3e4c6ac8	0.19962609
179	0xbd3ddf52	-0.046355553
180	0xbdc91838	-0.098190725
181	0xbb9f6367	-0.0048641446
182	0x3e6c7b7e	0.23093984
183	0x3dbf10d9	0.09329385
184	0x3aaaf87a	0.0013044022
185	0x3e4f5dd9	0.20250644
186	0xbe3632be	-0.17792794
187	0x3f10faf0	0.566329
188	0xbc800319	-0.015626477
189	0xbc0a3d94	-0.008437533
190	0x3cf63bfe	0.030057903
191	0x3ebd0431	0.3691726
192	0xbe9d9fbc	-0.3078593
193	0xbe94153a	-0.28922445
194	0xbbce5282	-0.006296457
195	0xbee75a0a	-0.45185882
196	0x3e60167d	0.21883579
197	0x3d9b8276	0.07593243
198	0x3e1d125a	0.15339032
199	0xbed79728	-0.4210751
200	0x3e455630	0.19271159
201	0xbe1b00c3	-0.1513701
202	0x3efd6a4e	0.49495167
203	0x3c955171	0.01822731
204	0x3d319f8d	0.04336505
205	0xbdecbe4d	-0.115597345
206	0xbe1249fa	-0.14286032
207	0xbe5e2f6c	-0.21697778
208	0xbdcbda09	-0.09953696
209	0xbddb908b	-0.10720929
210	0xbe34a046	-0.17639264
211	0x3d6f2332	0.058383174
212	0xbe1dcfb1	-0.15411259
213	0x3e2e44a0	0.17018366
214	0xbf0005c1	-0.5000878
215	0xbdb556be	-0.088544354
216	0xbf134d76	-0.5754007
217	0x3da8c76c	0.08241162
218	0xbd01a7c9	-0.031654153
219	0xbd200080	-0.039062977
220	0xbef7f024	-0.484254
221	0xbeaa3ede	-0.3325109
222	0x3c897629	0.016779976
223	0xbe0e9aa7	-0.13926183
224	0x3ea546ec	0.32280672
225	0x3e4c32e3	0.19941287
226	0x3ebac8d1	0.36481336
227	0xbd964b3b	-0.07338568
228	0x3e50f9c3	0.20407777
229	0x3d5c51dc	0.053789005
230	0xbea7bf40	-0.327631
231	0xbe6ab7b1	-0.22921635
232	0xbe3cf7e5	-0.1845394
233	0x3dba95d0	0.09110606
234	0xbdcf4421	-0.101204164
235	0x3e443f2b	0.19164722
236	0xbc8a5276	-0.016885024
237	0xbf381492	-0.7190639
238	0xbe78acea	-0.24284711
239	0x3d35191f	0.04421341
240	0xbe8f2301	-0.27956393
241	0xbd60cddd	-0.054883827
242	0xbd3500d0	-0.044190228
243	0xbce426c0	-0.027850509
244	0x3e048843	0.12942605
245	0xbe85a912	-0.26105553
246	0x3db66e1e	0.08907722
247	0x3dbad85a	0.09123297
248	0xbe63a0eb	-0.22229354
249	0xbee34de2	-0.44395357
250	0xbc55396e	-0.013014181
251	0x3db6a858	0.08918828
252	0xbe841b9b	-0.2580231
253	0xbe075d07	-0.13219081
254	0x3e511add	0.20420404
255	0xbe0d3852	-0.13791016

fc1.bias f4 [128]
0	0xbd240d11	-0.040051524
1	0xbcc9db78	-0.024640784
2	0x3d8b33f7	0.06797021
3	0xbd63f889	-0.055656943
4	0xbda4e517	-0.08051508
5	0xbdbc1fde	-0.09185766
6	0x3d54e804	0.05197908
7	0x3dd866f8	0.10566515
8	0xbb0126c0	-0.0019706935
9	0xbe059076	-0.13043389
10	0xbd6799c6	-0.056543134
11	0xbe038e08	-0.1284715
12	0x3ca87deb	0.020567855
13	0x3c79ee62	0.015254589
14	0xbda6245a	-0.08112402
15	0xbcb52bf4	-0.022115685
16	0xbd35d3fc	-0.044391617
17	0x3bf27110	0.007398732
18	0x3cb3a2db	0.021928241
19	0xbdd3d655	-0.10343615
20	0x3d7f459f	0.062322255
21	0xbc4e5320	-0.012593061
22	0xbd56ea4f	-0.052469548
23	0xbdc944a3	-0.098275445
24	0x3d8083a4	0.062751085
25	0xbe0fa636	-0.14028248
26	0xbdf352cc	-0.118810266
27	0xbc1beb56	-0.009516558
28	0x3d8d5dbb	0.06902643
29	0xbdb7ec25	-0.08980588
30	0xbca13281	-0.019677402
31	0xbdf4b550	-0.11948645
32	0xbe54f3da	-0.20796147
33	0xbe030305	-0.1279412
34	0xbcca001d	-0.024658257
35	0x3d70d4ae	0.058796577
36	0xbbfe5521	-0.007761613
37	0xbc49b8ae	-0.0123120975
38	0xbc3e8436	-0.011628201
39	0xbb229351	-0.0024807046
40	0x3cb5f7fa	0.022212971
41	0xbe08ddb3	-0.13365822
42	0xbd1d1d74	-0.038358167
43	0xbd8ef0f2	-0.069795504
44	0xbcce4165	-0.025177667
45	0x3be95c3c	0.007121591
46	0xbda30c53	-0.07961335
47	0x3d88b955	0.06675974
48	0xbd325df9	-0.04354665
49	0xbe2d4937	-0.1692246
50	0xbc953d04	-0.018217571
51	0xbdeef802	-0.116683975
52	0x3c6fca48	0.01463563
53	0x3a34bd2e	0.0006894645
54	0xbddae16d	-0.10687528
55	0xbdc04883	-0.093888305
56	0xbdde9182	-0.10867597
57	0x3c0adc6f	0.008475407
58	0xbd1d8380	-0.038455486
59	0xbd3a88de	-0.045540683
60	0xbe098d26	-0.1343275
61	0xbe2ba55f	-0.16762303
62	0x3b4b081c	0.0030980175
63	0x3c170f25	0.009219919
64	0xbe2519d2	-0.16123131
65	0xbdde45ed	-0.10853181
66	0xbe04b513	-0.129597
67	0xbe474f90	-0.19463944
68	0xbe08c706	-0.13357171
69	0xbd92c217	-0.07165926
70	0xbe2f8a0e	-0.17142507
71	0xbda1645e	-0.07880472
72	0xbd89be8c	-0.06725797
73	0xbc0c3d6b	-0.008559565
74	0xbd4293fe	-0.047504418
75	0xbdbe59fd	-0.09294508
76	0xbdcc84ea	-0.09986289
77	0xbe01d963	-0.12680583
78	0xbd5d9a6d	-0.05410235
79	0xbda8eb54	-0.0824801
80	0xbe0198ca	-0.1265594
81	0xbca602c0	-0.020264983
82	0xbd5a6af5	-0.05332466
83	0xbd873a53	-0.06602921
84	0xbe2c7501	-0.16841508
85	0xbd46b032	-0.048507877
86	0xbdfc564f	-0.123211496
87	0xbc2bc194	-0.010483164
88	0x3d4f4441	0.0506022
89	0xbde62df9	-0.11239237
90	0x3cb4d973	0.022076344
91	0xbdc1c1ad	-0.09460769
92	0xbd6a77d0	-0.05724317
93	0xbc83b608	-0.01607801
94	0xbd5dc199	-0.054139707
95	0xbe18c047	-0.14917098
96	0xbde3c2d7	-0.11121147
97	0xbd2fe2ad	-0.042940784
98	0xbc886051	-0.01664749
99	0xbcd762ba	-0.026292194
100	0xbd836cee	-0.06417261
101	0xbc1be8d6	-0.009515962
102	0xb9319252	-0.00016934544
103	0xbc0710e9	-0.008243778
104	0xbdf9f9a0	-0.12205815
105	0xbe4d5121	-0.2005048
106	0xbdd81f28	-0.105528176
107	0xbdda8861	-0.106705435
108	0xbda49e59	-0.08038015
109	0x3d3a3a86	0.04546597
110	0xbd671458	-0.056415886
111	0xbdb4f55b	-0.0883586
112	0xbe07e541	-0.13271047
113	0xbdd138f2	-0.102159396
114	0xbcb14b2a	-0.021642286
115	0xbd94d21a	-0.07266636
116	0xbd99f43b	-0.075172864
117	0x3d6430fe	0.055710785
118	0xbc861b2b	-0.016370377
119	0xbd97861d	-0.07398627
120	0xbd92d78a	-0.07170017
121	0xbe17b918	-0.14816701
122	0xbd0987db	-0.033576827
123	0xbd0fb476	-0.03508421
124	0x3bb55cf3	0.005534762
125	0xbddfa983	-0.10921004
126	0x3d47e87d	0.048805702
127	0xbddaab28	-0.10677177

fc2.weight f4 [64, 128]
0	0xbdcce66f	-0.10004889
1	0x3e07c180	0.13257408
2	0xbe07909b	-0.13238756
3	0x3d76a937	0.06021997
4	0xbde5a60e	-0.11213313
5	0x3e273245	0.1632777
6	0xbe7e86ad	-0.24856062
7	0xbd59b199	-0.053147886
8	0xbe2d4453	-0.16920595
9	0x3c9e18a3	0.019298857
10	0xbe03414e	-0.1281788
11	0xbddc2f45	-0.107512034
12	0xbe041fcd	-0.12902756
13	0x3d8ab1dc	0.06772205
14	0xbde7fa3b	-0.113270245
15	0x3c30f3c8	0.0108003095
16	0x3db50ea1	0.08840681
17	0xbd8bb110	-0.06820881
18	0xbe21b26a	-0.15790716
19	0xbce14c85	-0.027502308
20	0xbe9bc665	-0.304248
21	0xbda544a8	-0.08069736
22	0xbd2ad588	-0.041707546
23	0x3ccf886a	0.025333602
24	0xbcd398e6	-0.025829744
25	0xbd7723a5	-0.060336728
26	0x3d8ee580	0.069773674
27	0xbdae26bd	-0.085034825
28	0xbcb3a85c	-0.021930866
29	0x3d33a4b3	0.04385824
30	0xbd96eba4	-0.07369164
31	0xbef9e3fb	-0.48806748
32	0xbe8daaee	-0.27669472
33	0x3abde7db	0.0014488654
34	0x3d5059a9	0.050866757
35	0xbcb98129	-0.022644596
36	0x3d94bcab	0.07262548
37	0x3ec010d3	0.37512836
38	0xbd990242	-0.07471134
39	0x3d8636dc	0.06553432
40	0x3c974822	0.018467013
41	0xbe26178f	-0.16219924
42	0xbd660525	-0.05615725
43	0xbd96c031	-0.07360876
44	0x3c928673	0.017886376
45	0xbdb3d20c	-0.08780298
46	0x3e179f9c	0.1480698
47	0xbeb9b79c	-0.36272895
48	0xbe59afed	-0.21258517
49	0x3d24362c	0.040090725
50	0xbe06c8d3	-0.13162546
51	0xbe46f825	-0.19430597
52	0xbe5a8c28	-0.21342528
53	0xbeae5cd7	-0.34055206
54	0xbd8be442	-0.06830646
55	0xbd0eb994	-0.03484495
56	0x3c853319	0.016259717
57	0x3c958b49	0.018254893
58	0x3cdf8c14	0.027288474
59	0xbd15f5e9	-0.03661147
60	0xbd56c707	-0.0524359
61	0xbd5221d5	-0.051301796
62	0x3d2aa712	0.041663237
63	0x3c075bbd	0.008261618
64	0xbdb80e48	-0.08987099
65	0xbe6c2f7a	-0.23064986
66	0xbe37132a	-0.17878404
67	0xbb72ddbc	-0.0037058434
68	0xbd9870f7	-0.07443421
69	0xbe3e551d	-0.18587156
70	0xbe26da13	-0.16294126
71	0xbcea7c9e	-0.028623875
72	0xbd7f27ac	-0.062293693
73	0xbe1f86d6	-0.1557878
74	0x3d8876d6	0.06663291
75	0xbe475c77	-0.19468866
76	0xbdc9517b	-0.09829994
77	0x3e2bd410	0.16780114
78	0xbd0c3a9b	-0.034235578
79	0xbd9d0ee6	-0.07668857
80	0x3de8ee0a	0.11373527
81	0x3dfb832c	0.122808784
82	0xbd9c08fd	-0.07618902
83	0xbe3714fd	-0.178791
84	0xbdcd420b	-0.10022362
85	0xbe269785	-0.16268738
86	0xbe6dfe64	-0.23241574
87	0x3dca0247	0.098637156
88	0xbda9dd12	-0.08294119
89	0xbe263036	-0.16229329
90	0xbd5a884b	-0.053352635
91	0xbd92e4dc	-0.07172558
92	0xbdbc8972	-0.09205903
93	0xbe217c66	-0.1577011
94	0xbced5493	-0.028970992
95	0xbe39877b	-0.18118088
96	0xbd18db95	-0.037318785
97	0xbd2f3074	-0.042770818
98	0xbd98a101	-0.07452584
99	0xbcc754b3	-0.02433238
100	0xbdac0c7c	-0.08400819
101	0x3d0d4ffa	0.0345001
102	0xbdc39675	-0.09550182
103	0xbde99d18	-0.114069164
104	0x3e598e6f	0.2124574
105	0xbe474112	-0.19458416
106	0xbcf5034c	-0.029908799
107	0xbdacd5cb	-0.08439215
108	0xbdbd1e04	-0.09234241
109	0xbe137429	-0.1439978
110	0xbdcbbf7e	-0.099486336
111	0xbda7b142	-0.08188106
112	0xbdc66b28	-0.09688407
113	0xbcd1a2af	-0.025590269
114	0x3dcaef2f	0.09908902
115	0x389009ab	6.868256e-05
116	0xbe887626	-0.2665264
117	0xbe11d77e	-0.1424236
118	0xbd4b054c	-0.0495656
119	0xbde062a8	-0.10956317
120	0xbd6d2090	-0.057892382
121	0x3b582368	0.0032980088
122	0x3cd6c500	0.026216984
123	0xbc007a31	-0.007841633
124	0x3dbc5a50	0.09196913
125	0x3d6efbb3	0.058345508
126	0xbd7ea72d	-0.06217115
127	0x3c9eaeaf	0.019370405
128	0xbdfec175	-0.12439243
129	0xbd8e8b5b	-0.06960174
130	0x3c7b3e60	0.015334696
131	0xbcbefcfb	-0.02331399
132	0xbcc4d315	-0.024026433
133	0xbc3028a6	-0.010751879
134	0xbddd6291	-0.10809816
135	0xbdcdd85b	-0.10051032
136	0xbdb605d4	-0.088878304
137	0xbdbe6e1a	-0.09298344
138	0xbdf9aec0	-0.12191534
139	0xbe336d29	-0.1752211
140	0x3d1baeb3	0.038008403
141	0xbca58390	-0.020204335
142	0x3e0aea02	0.1356583
143	0x3cde4098	0.02713041
144	0x3e04c2b7	0.12964903
145	0xbd046df1	-0.03233141
146	0x3e7139e7	0.23557244
147	0x3e909bbf	0.28243825
148	0x3bfa0238	0.007629659
149	0x3d8db02e	0.06918369
150	0x3d05a41d	0.032627214
151	0xbe560d37	-0.20903479
152	0x3e5c858d	0.2153532
153	0xbe8647ad	-0.2622656
154	0xbe547eef	-0.20751546
155	0x3c7e0806	0.015504843
156	0x3e285bd6	0.16441283
157	0x3df883b2	0.12134494
158	0x3f0a4cfe	0.5402373
159	0xbe54dd24	-0.20787483
160	0x3cecf919	0.028927373
161	0xbc57b725	-0.013166224
162	0xbe0fadf3	-0.140312
163	0xbe0611b3	-0.13092689
164	0x3d934a23	0.07191875
165	0x3e5a28db	0.21304648
166	0x3dd0a49d	0.101876475
167	0xbae2b70a	-0.0017296982
168	0xbd9c3adb	-0.07628413
169	0xbdea050d	-0.114267446
170	0xbd602318	-0.054720968
171	0x3e50d430	0.20393443
172	0xbc363354	-0.011120636
173	0x3e9257f2	0.28582722
174	0x3e050930	0.12991786
175	0xbd9e6434	-0.07733956
176	0xbe7a2dcf	-0.24431537
177	0xbe1f6850	-0.15567136
178	0x3eded3b6	0.43520898
179	0x3d805232	0.062656775
180	0xbe7fa9bb	-0.24967091
181	0xbe394623	-0.18093161
182	0xbef9cbd4	-0.4878832
183	0xbed4d0f7	-0.41565678
184	0xbe31bcf4	-0.17357236
185	0xbdc08ad5	-0.0940148
186	0x3cb7adcc	0.02242174
187	0x3d53aa3f	0.05167603
188	0xbd51daae	-0.05123394
189	0xbe25680c	-0.16152972
190	0x3d734258	0.059389442
191	0x3dd047b7	0.101699285
192	0xbe56dd97	-0.20982967
193	0x3d0beea8	0.034163147
194	0x3e7f2d7d	0.24919696
195	0x3e65c889	0.2243978
196	0x3e60bc7d	0.21946903
197	0x3c7e2821	0.015512497
198	0x3e1e3551	0.15450026
199	0x3f2832e3	0.65702647
200	0x3d9244a2	0.07141997
201	0xbf0496e8	-0.51792765
202	0x3e24b590	0.16084886
203	0xbf090905	-0.5352939
204	0xbd008eef	-0.031386312
205	0xbe0b0cbc	-0.13579077
206	0xbd3044be	-0.043034308
207	0x3e841f54	0.2580515
208	0xbe4e37f9	-0.2013854
209	0xbeb5f060	-0.35534954
210	0xbebf1ba8	-0.37325788
211	0xbe478cc5	-0.19487293
212	0xbdfc4962	-0.12318684
213	0x3b95a70a	0.0045670317
214	0xbe71d0be	-0.23614785
215	0x3e3ba683	0.18325238
216	0x3e7592ea	0.23981825
217	0xbd0f45ee	-0.0349788
218	0x3e31681f	0.17324875
219	0xbce11204	-0.02747441
220	0x3cc23450	0.023706585
221	0x3dfd3e20	0.12365365
222	0xbec21d24	-0.37912858
223	0xbe033725	-0.12814005
224	0x3dd8de25	0.10589246
225	0x3dbbcdba	0.091700986
226	0xbe28765c	-0.164514
227	0xbd47af9d	-0.048751462
228	0xbd150f29	-0.03639141
229	0xbe3d7099	-0.18499984
230	0xbe14f016	-0.1454471
231	0xbf7b0849	-0.9805952
232	0x3d2dcb1b	0.042430025
233	0x3d8c047d	0.068367936
234	0x3d5dda1f	0.054163095
235	0x3e12ff71	0.14355256
236	0xbda339f5	-0.07970039
237	0xbe6ca617	-0.23110233
238	0x3dfddd4a	0.12395723
239	0x3dbe359e	0.092875704
240	0x3be16633	0.006878638
241	0x3e0b2a5f	0.13590382
242	0x3ebbd564	0.36686242
243	0xbedd52c3	-0.43227205
244	0xbec5dc36	-0.3864457
245	0x3da55b7a	0.080740884
246	0xbd9b949c	-0.07596704
247	0xbdef4487	-0.116829924
248	0xbf271e1b	-0.6528031
249	0x3c9a2d91	0.018820556
250	0x3cf4b8b0	0.029873222
251	0xbd2d2119	-0.042267893
252	0xbd7a917a	-0.061173894
253	0xbdf14051	-0.117798455
254	0x3ebf0c3f	0.3731403
255	0xbd5787b3	-0.052619647

fc2.bias f4 [64]
0	0xbea60d7b	-0.3243216
1	0xbdd4c58b	-0.10389241
2	0xbe19e4cd	-0.15028687
3	0xbe0bee46	-0.13665113
4	0x3e12c7e1	0.1433406
5	0xbe66536c	-0.2249276
6	0x3eefd9fd	0.46846
7	0xbe43962d	-0.19100256
8	0xbd590ce7	-0.05299082
9	0x3e545b9d	0.20738073
10	0x3e05e434	0.13075334
11	0xbce6ded6	-0.028182428
12	0xbc65dbd3	-0.014029461
13	0x3e880ab1	0.26570657
14	0xbe83b3ae	-0.25723022
15	0xbe7ca8ec	-0.24673814
16	0xbd332fb5	-0.04374667
17	0xbec848c9	-0.3911803
18	0x3e4c2541	0.19936086
19	0xbe42a8ce	-0.19009706
20	0xbe3a5883	-0.18197827
21	0xbee9a088	-0.45630288
22	0x3e91aeb5	0.28453603
23	0xbeb37b2f	-0.3505492
24	0xbe3ad98d	-0.18247052
25	0xbdf918c4	-0.12162927
26	0xbe876d64	-0.26450646
27	0xbea59f30	-0.32348013
28	0xbe670200	-0.22559357
29	0x3eb76646	0.35820216
30	0xbec44c52	-0.38339478
31	0x3d2e8d42	0.042615183
32	0xbd29e309	-0.041476283
33	0x3dc120b2	0.09430064
34	0xbe0bca85	-0.13651474
35	0xbeaf9e17	-0.343003
36	0x3e0094f8	0.12556827
37	0xbb71d1d1	-0.0036898742
38	0x3e9ef985	0.31049743
39	0xbe734680	-0.23757362
40	0x3ec2766f	0.37980983
41	0xbe791c16	-0.2432712
42	0xbe0f9229	-0.140206
43	0xbe41dec1	-0.1893263
44	0xbdb40be8	-0.087913334
45	0x3eb247b8	0.34820342
46	0xbdfe6cb6	-0.12423079
47	0xbca90c4f	-0.020635752
48	0xbe4c7764	-0.19967419
49	0xbe34858f	-0.17629074
50	0xbe169686	-0.14705858
51	0xbe263534	-0.16231233
52	0x3e52e411	0.20594813
53	0xbd7184d6	-0.058964573
54	0xbea8261b	-0.32841572
55	0x3e97b5a2	0.29630762
56	0xbe8eefce	-0.2791733
57	0x3e339522	0.17537358
58	0xbdef10e3	-0.11673143
59	0xbdc4ec9c	-0.09615442
60	0xbe8c5488	-0.27408242
61	0xbe833a08	-0.25630212
62	0xbd8e0130	-0.0693382
63	0x3ddd628e	0.108098134

fc3.weight f4 [2, 64]
0	0x3d802d0b	0.06258591
1	0x3e87e1f4	0.26539576
2	0xbd28cbf7	-0.04121014
3	0xbd7b571a	-0.061362363
4	0x3e04370a	0.1291162
5	0xbea78c21	-0.32724097
6	0x3dbce628	0.09223586
7	0xbe9332eb	-0.28749785
8	0xbe953cc6	-0.2914793
9	0x3d9dc01a	0.07702656
10	0x3e04ef82	0.1298199
11	0xbea948d5	-0.3306338
12	0xbe2b050a	-0.16701141
13	0x3e2fde58	0.17174661
14	0xbe4634de	-0.19356105
15	0xbeacab02	-0.3372422
16	0xbd5f37a2	-0.054496415
17	0xbe186af3	-0.14884548
18	0x3e068f92	0.13140705
19	0xbee71f6f	-0.4514117
20	0xbe580544	-0.21095759
21	0xbef84238	-0.4848802
22	0x3e76c4d9	0.24098529
23	0xbdfd90db	-0.123811446
24	0xbde30e74	-0.11086741
25	0x3e5d1958	0.21591699
26	0xbd6a42ba	-0.05719254
27	0xbda81648	-0.08207375
28	0x3ccfd503	0.025370127
29	0x3d87a798	0.06623763
30	0xbe3a6388	-0.1820203
31	0xbdce7778	-0.100813806
32	0x3d8dff9a	0.06933518
33	0x3de1e38e	0.11029731
34	0x3e8fd60d	0.28092995
35	0xbdf081c4	-0.11743501
36	0x3d3968f9	0.045266125
37	0x3ca21aaa	0.019788105
38	0xbc56f5df	-0.013120144
39	0x3e683c57	0.22679268
40	0x3cf73da7	0.030180765
41	0xbbbcec59	-0.0057654795
42	0xbd1e7ec7	-0.038695123
43	0xbe37eac6	-0.17960653
44	0x3e2f9e3c	0.17150205
45	0x3da9bca4	0.082879335
46	0xbe746a0b	-0.23868577
47	0x3e655953	0.22397356
48	0xbdad6184	-0.08465865
49	0xbd5c4299	-0.05377445
50	0x3df9aa9d	0.12190745
51	0xbcceeca2	-0.02525932
52	0x3d5fbda3	0.05462421
53	0xbb92b684	-0.004477324
54	0xbed3cce3	-0.41367254
55	0x3e17651a	0.14784661
56	0xbe6da015	-0.23205598
57	0x3e43e813	0.19131498
58	0xbe8100e0	-0.2519598
59	0xbd8e2817	-0.0694124
60	0xbd49455f	-0.049138423
61	0xbd94b768	-0.072615445
62	0x3e482d7c	0.19548601
63	0x3da88c82	0.08229925
64	0x3c52571b	0.01283815
65	0xbd670070	-0.0563969
66	0x3dc87e9e	0.09789775
67	0x3da2d132	0.07950057
68	0xbe2e05ec	-0.16994447
69	0x3e821289	0.25404766
70	0xbe64218c	-0.22278422
71	0x3e0ca881	0.13736154
72	0x3e6385bf	0.22218989
73	0x3d2a16d2	0.04152567
74	0x3dc51026	0.09622221
75	0x3ec46adf	0.38362786
76	0x3e4138fa	0.18869391
77	0xbaab6b1a	-0.0013078183
78	0x3d2516c7	0.040304925
79	0x3e98555a	0.29752618
80	0x3d7dd098	0.06196651
81	0x3e0bb1ed	0.13642092
82	0xbdf65973	-0.1202878
83	0x3ebaabd1	0.3645921
84	0x3d8bf33a	0.06833501
85	0x3ee9b9da	0.45649606
86	0xbe2a3152	-0.16620377
87	0x3e84858f	0.25883147
88	0x3d8b6696	0.06806676
89	0xbe8f6232	-0.28004605
90	0x3cddf512	0.027094398
91	0x3da943ce	0.08264886
92	0xbd52df79	-0.05148265
93	0xbccaa838	-0.024738416
94	0x3d355a2d	0.04427545
95	0xbca5c016	-0.020233195
96	0xbe772204	-0.2413407
97	0xbe4f78be	-0.20260903
98	0xbeeeba1f	-0.46626374
99	0x3da41c41	0.080132015
100	0xbd5b62c8	-0.053561002
101	0x3c44b740	0.012006581
102	0xbd0855e2	-0.03328503
103	0xbeac5971	-0.33661988
104	0xbe454df1	-0.19268014
105	0xbddde9f9	-0.10835642
106	0x3e80731a	0.25087816
107	0x3db77ffc	0.08959958
108	0xbe5e5256	-0.21711096
109	0xbd8d4627	-0.06898146
110	0x3d8793a6	0.066199586
111	0xbe58abd7	-0.21159302
112	0x3dc6d969	0.097094364
113	0x3cbb9ed2	0.02290288
114	0x3dc360ad	0.09539924
115	0x3df65327	0.12027579
116	0xbd1ee639	-0.038793776
117	0x3e374303	0.17896657
118	0x3ea9d369	0.33169106
119	0xbe2ef8a3	-0.17087035
120	0x3e1560ee	0.14587757
121	0xbe81f025	-0.25378528
122	0x3ed138bd	0.408636
123	0x3d9713ae	0.073768005
124	0x3e813029	0.25232056
125	0x3c637f44	0.013885323
126	0xbce08502	-0.027407173
127	0xbdb24f00	-0.08706474

fc3.bias f4 [2]
0	0x3edb02e0	0.4277563
1	0xbece92b6	-0.40346307
