model/xlm_roberta_ann_model.pth (torch, 429575 bytes, 6 tensors)

fc1.weight f4 [128, 768]
0	0x3e56c89f	0.20974968
1	0xbc17bc86	-0.009261256
2	0x3bdb8ab9	0.0066998866
3	0xbd1e74b2	-0.038685508
4	0x3d787cf1	0.06066603
5	0xbdff9b3c	-0.124807805
6	0xbd69c3d8	-0.057071537
7	0xbe0ae456	-0.13563666
8	0x3cf71ff9	0.030166613
9	0xbc1d4c5e	-0.009600727
10	0xbcfa7704	-0.03057433
11	0x3defd0f1	0.11709774
12	0xbce944f0	-0.028475255
13	0xbdd5e767	-0.10444527
14	0x3efaf8c0	0.49017906
15	0x3df6aeaa	0.12045033
16	0xbd8f398e	-0.069933996
17	0xbe1902c0	-0.14942455
18	0xbd6419ae	-0.055688553
19	0xbf062a12	-0.52407944
20	0xbdab40e0	-0.08361983
21	0x3e8d65a1	0.276166
22	0x3dbec938	0.09315723
23	0x3d9ad2d5	0.07559744
24	0xbd5be199	-0.053681944
25	0x3d3c7c6b	0.04601709
26	0xbdafa582	-0.0857649
27	0x3d85f049	0.065399714
28	0x3e0dc00c	0.13842791
29	0xbf652609	-0.8951116
30	0xbd092b0a	-0.03348831
31	0x3e6064ae	0.21913406
32	0x3e45c964	0.19315106
33	0xba875a45	-0.0010326585
34	0xbcd95a3d	-0.026532287
35	0xbe21ee88	-0.15813649
36	0xbe9d7df8	-0.3076017
37	0x3c5f8a1e	0.01364377
38	0xbb6c4f7d	-0.003605812
39	0x3d45bcc6	0.04827573
40	0xbc0e661f	-0.00869134
41	0x3cb7742d	0.022394264
42	0xbc48e529	-0.012261667
43	0x3e18f0fe	0.14935681
44	0x3dd759f2	0.105152026
45	0x3de61586	0.11234574
46	0xbdaf3105	-0.085542716
47	0x3e09e892	0.13467625
48	0x3cbed8fd	0.023296827
49	0xbdf0b0e1	-0.11752487
50	0x3e299c79	0.16563596
51	0x3e81ec7e	0.25375742
52	0xbdbc65e2	-0.0919912
53	0xbcf2fd50	-0.029661804
54	0x3e23c2a4	0.15992218
55	0x3ecef09f	0.40417954
56	0x3d2704c4	0.04077603
57	0x3dc860d2	0.09784092
58	0xbda3f77d	-0.08006189
59	0x3bec0171	0.0072023203
60	0xbda45cff	-0.0802555
61	0xbe2cf691	-0.16890933
62	0xbc46f33b	-0.012142952
63	0x3d16edb3	0.03684778
64	0x3dafb876	0.08580105
65	0xbf0dc6d6	-0.55381525
66	0x3e9351fd	0.2877349
67	0xbe95132b	-0.29116186
68	0x3d9dc401	0.077034004
69	0xbcd4e6c0	-0.025988936
70	0xbeaceab2	-0.33772808
71	0xbf439144	-0.7639353
72	0xbc7bf1a4	-0.015377436
73	0x3f140d65	0.5783294
74	0x3e957484	0.29190457
75	0xbd9468d3	-0.07246556
76	0xbe1f6b56	-0.15568289
77	0x3f3a39ab	0.72744244
78	0xbd673e0f	-0.056455668
79	0x3bfc0f3d	0.007692246
80	0xbcb05fac	-0.021529995
81	0xbdb4e938	-0.088335454
82	0xbcc177cf	-0.0236167
83	0xbdfcde84	-0.12347129
84	0xbdbe4223	-0.09289958
85	0xbd8bd7c3	-0.06828263
86	0x3d892dce	0.0669819
87	0x3d42d75e	0.04756867
88	0xbd83291a	-0.06404324
89	0x3d07f546	0.033192895
90	0x3da41018	0.08010882
91	0x3c02bc1a	0.007979417
92	0x3e4d35ee	0.20040104
93	0xbd639757	-0.05556425
94	0x3cf13124	0.029442377
95	0xbccf5d71	-0.025313111
96	0xbe142729	-0.14468063
97	0xbe912f1f	-0.28356263
98	0xbd9b6fd6	-0.075896904
99	0x3d849080	0.06472874
100	0x3fa9e6d5	1.3273569
101	0xbde72779	-0.11286826
102	0xbdba0d25	-0.09084538
103	0xbe3cdcd0	-0.18443608
104	0x3d7530da	0.05986104
105	0xbf2b1ef1	-0.6684409
106	0xbf0eb2b1	-0.5574141
107	0xbe319328	-0.17341292
108	0xbe46714e	-0.1937916
109	0xbf09fec0	-0.5390434
110	0xbf22cd25	-0.63594276
111	0x3c7762e6	0.015099263
112	0xbf18e878	-0.5972972
113	0xbe07d795	-0.13265832
114	0x3d5e032a	0.054202236
115	0xbe263bf3	-0.16233806
116	0x3e0a905f	0.13531636
117	0xbea5a3c5	-0.3235151
118	0xbe0269f8	-0.12735736
119	0x3e401762	0.1875892
120	0x3e68885e	0.2270827
121	0x3d011aff	0.031519886
122	0xbd4e1307	-0.050311115
123	0xbc6e0582	-0.01452768
124	0xbe6173d7	-0.22016846
125	0xbea25c9e	-0.31711286
126	0xbd77591d	-0.06038772
127	0x3f077a14	0.5292065
128	0x3e3c48f4	0.18387204
129	0x3d5a4d51	0.05329639
130	0x3d8065f1	0.06269444
131	0xbeda4944	-0.42634022
132	0x3d1a2076	0.037628613
133	0xbeb922cf	-0.3615937
134	0xbde9fa56	-0.11424701
135	0xbd1b5d1a	-0.037930585
136	0x3df7ceba	0.12099977
137	0x3c2535bb	0.010083611
138	0xbb355fb9	-0.0027675463
139	0x3b1540ec	0.0022774292
140	0xbfa59b35	-1.293799
141	0xbef15ab9	-0.47139528
142	0xbe237a07	-0.15964518
143	0xbe75822e	-0.23975441
144	0xbce78833	-0.028263187
145	0xbe7d2188	-0.24719822
146	0xbeea1757	-0.45720932
147	0x3dda0a35	0.10646478
148	0x3c10904b	0.008823465
149	0x3d713f03	0.058897983
150	0x3f2778dc	0.6541879
151	0xbddc0af4	-0.10744277
152	0x3d03ce76	0.03217932
153	0xbd19dacf	-0.037562188
154	0x3eea5f37	0.45775768
155	0x3da1ae45	0.078945674
156	0x3dc9cab9	0.098531194
157	0x3db2387a	0.08702178
158	0xbd007635	-0.03136273
159	0x3e2348f2	0.15945795
160	0xbddbf0fd	-0.10739324
161	0xbd66b46f	-0.05632442
162	0xbcd8227e	-0.026383635
163	0xbd1a3f6c	-0.03765814
164	0x3e396ed7	0.18108688
165	0xbeced370	-0.4039569
166	0xbc879151	-0.016548784
167	0x3bdc7418	0.0067277066
168	0xbe5cfde6	-0.2158123
169	0x3d156b49	0.03647927
170	0x3cc56f9a	0.024101067
171	0x3b6d3189	0.0036192855
172	0xbdf9f0da	-0.12204142
173	0x3d68f584	0.056874767
174	0x3b322a68	0.002718592
175	0x3e53f686	0.2069951
176	0xbe9e91c8	-0.30970597
177	0x3d97b828	0.07408172
178	0x3ec90aae	0.3926596
179	0x3d027dbf	0.031858202
180	0xbf8b4bdd	-1.0882527
181	0x3ce68128	0.028137758
182	0xbf6127d2	-0.87951386
183	0x3d859b20	0.06523728
184	0x3ccaa4ed	0.024736846
185	0x3f145deb	0.5795581
186	0x3db97cb2	0.09056987
187	0xbd0845b6	-0.033269607
188	0xbc32900b	-0.0108986
189	0xbcd4e300	-0.025987148
190	0x3f189afb	0.5961148
191	0x3eb8da7d	0.36104193
192	0xbd9f8609	-0.07789237
193	0xbd958941	-0.0730157
194	0x3dbf0394	0.09326854
195	0x3d9a2f1d	0.075285174
196	0x3d2fd37d	0.0429263
197	0xbe941dd4	-0.28929007
198	0x3e2fa12a	0.17151323
199	0xbde650bd	-0.11245868
200	0x3bc81c00	0.0061068535
201	0xbe08abe4	-0.13346821
202	0xbd2b8d99	-0.041883085
203	0x3da4a363	0.08038976
204	0xbe9e69a5	-0.30939975
205	0x3e875830	0.2643447
206	0xbd66309e	-0.05619871
207	0x3c86ccf4	0.016455151
208	0xbc11af62	-0.008891912
209	0xbd8a5339	-0.06754155
210	0x3e53cbc8	0.20683205
211	0x3f4bc53a	0.7959782
212	0x3d410618	0.047124952
213	0x3dac574f	0.0841509
214	0x3d9a0d88	0.07522112
215	0xbda82852	-0.082108155
216	0x3f578a72	0.84195626
217	0xbd0f8e2d	-0.0350477
218	0x3df720a7	0.12066775
219	0x3ddc2aa1	0.10750318
220	0xbf0fb930	-0.5614195
221	0x3f06fec7	0.5273251
222	0x3f40977a	0.75231135
223	0xbd4506fc	-0.048102364
224	0x3b0629e9	0.0020471758
225	0xbda28edf	-0.07937407
226	0x3d3616a6	0.044455193
227	0x3e5ba709	0.21450438
228	0xbd2f5596	-0.04280623
229	0x3dd2f8b2	0.10301341
230	0xbbf297f3	-0.0074033677
231	0xbe50126d	-0.20319529
232	0x3eaf1b63	0.34200582
233	0x3ec1cc41	0.37851146
234	0xbdb1d6ac	-0.086835235
235	0xbe6aa1a2	-0.2291322
236	0xbf71f7ab	-0.94518536
237	0x3dccebf9	0.10005946
238	0x3eec5fe9	0.46166924
239	0xbe7a030e	-0.24415228
240	0xbdb06382	-0.086127296
241	0xbf2a30a1	-0.6648045
242	0x3f28f270	0.6599493
243	0x3dc370f0	0.095430255
244	0x3e0b74ef	0.13618825
245	0x3defb0a9	0.11703617
246	0x3ce63294	0.02810029
247	0xba26ee45	-0.00063679024
248	0xbeeb795e	-0.45991033
249	0xbdfd78f9	-0.12376589
250	0x3e370878	0.17874324
251	0xbd89e502	-0.06733133
252	0x3e2d210d	0.16907139
253	0x3ea689b9	0.3252695
254	0x3c901a88	0.017590776
255	0xbd6cb519	-0.057789896

fc1.bias f4 [128]
0	0x3ce48886	0.02789713
1	0x3c421a70	0.0118471235
2	0xbad4a07c	-0.0016222144
3	0xbd1190ba	-0.035538413
4	0xbba21e88	-0.0049474873
5	0xbc2c3416	-0.010510465
6	0xbc900ebc	-0.01758515
7	0xbd4bdc6b	-0.049770754
8	0xbcc3ec34	-0.023916341
9	0xbd1630cf	-0.03666764
10	0xbd22bf7d	-0.0397334
11	0xbc59ee66	-0.0133014675
12	0xb9d92f9a	-0.0004142493
13	0x3c869f74	0.016433455
14	0x3d10c76e	0.03534644
15	0xbd2374d7	-0.03990635
16	0xbb7a3143	-0.0038176335
17	0xbafc6fe0	-0.0019259416
18	0xb953e5fc	-0.00020208204
19	0xbd23f4d8	-0.040028423
20	0xbd3d19d0	-0.046167195
21	0xbb93e7c8	-0.0045137145
22	0xbcc87bde	-0.024473127
23	0xba6afe00	-0.00089642406
24	0xbb204260	-0.0024453625
25	0xbcb0d5d8	-0.021586344
26	0xbcbff60b	-0.023432752
27	0xba4fd19f	-0.00079276593
28	0x3c277d5b	0.010222758
29	0xba44e9b3	-0.00075116305
30	0xbd05a2cf	-0.03262597
31	0x3bc63a61	0.00604944
32	0x3c8309fa	0.015995968
33	0x3ca8e50a	0.020617027
34	0xbb3c4f42	-0.0028733765
35	0x3b4367c8	0.0029816497
36	0xbd2be09a	-0.041962244
37	0xbd081aff	-0.03322887
38	0xbca3e779	-0.020007836
39	0xbcfecd5c	-0.031103782
40	0xbcfd4d99	-0.03092079
41	0xbca3f3d5	-0.02001373
42	0x3c384502	0.0112469215
43	0xbc57455a	-0.013139093
44	0xbb45a4e0	-0.0030158088
45	0xbd73f7fe	-0.059562676
46	0xbd9d1450	-0.0766989
47	0x3cb469ce	0.022023108
48	0xbb2fce31	-0.002682578
49	0x3c27bc71	0.010237799
50	0x3cb1a41b	0.021684697
51	0xbcaa138e	-0.020761278
52	0x3c96bc8a	0.01840045
53	0xbcc16aa5	-0.023610422
54	0xbd0a77f7	-0.033805814
55	0xbce6dffc	-0.028182976
56	0x3cec55b0	0.028849453
57	0xbcdea599	-0.027178572
58	0xbb4c30e0	-0.0031157061
59	0xbb13d080	-0.0022554696
60	0xbc792b48	-0.015208073
61	0x3d048814	0.032356337
62	0xb917fbf3	-0.0001449434
63	0x3a967d00	0.0011481345
64	0xbba66232	-0.0050776238
65	0xbc4577ba	-0.012052471
66	0xbd2035c6	-0.039113782
67	0xbd0403d7	-0.032230224
68	0xbcf169f6	-0.029469471
69	0xbcbc14b1	-0.022959085
70	0x3cb626fa	0.022235382
71	0xbd06671c	-0.032813177
72	0x3afa6260	0.0019102804
73	0x3cc23f2c	0.023711763
74	0xbc8b64e9	-0.017015891
75	0x3c0be354	0.008538086
76	0x3adc5600	0.0016810298
77	0xbc0b7365	-0.008511399
78	0xbcbddb1a	-0.023175765
79	0xbc9f797f	-0.019467114
80	0xbd87a006	-0.06622319
81	0xbc2785b4	-0.010224748
82	0xbc5dcfc0	-0.013538301
83	0xbcbd2ff3	-0.023094153
84	0xbd0d882b	-0.034553688
85	0xbca3a1f5	-0.019974688
86	0xbc4eaa9e	-0.0126139205
87	0x3b7b2200	0.0038319826
88	0xbceeb4fd	-0.029139036
89	0x3cb4d7c2	0.022075538
90	0xbc44222a	-0.011971036
91	0x3b95e770	0.0045747086
92	0xbb47e9f6	-0.0030504442
93	0xbd00a9ec	-0.03141205
94	0x3a981aa1	0.0011604616
95	0x3c006f64	0.007839058
96	0xbc31b41a	-0.010846162
97	0xbcd80f20	-0.0263744
98	0x3d10db24	0.03536524
99	0xbd0ab60e	-0.033865027
100	0xbc166312	-0.009178894
101	0xbc5e1fbb	-0.01355737
102	0xbcb979fb	-0.022641173
103	0x3bb750b6	0.0055943383
104	0xbc289d99	-0.01029148
105	0xbd095668	-0.03352967
106	0x3c0eb180	0.0087093115
107	0xbd0a957b	-0.033833962
108	0xbbc5481c	-0.006020559
109	0xbd0513d9	-0.03248963
110	0xba9da5ec	-0.0012027598
111	0xbcc8e925	-0.024525234
112	0x3bcf805f	0.0063324417
113	0x3ceb00ec	0.028686963
114	0x3b312840	0.0027032048
115	0xbca9e47d	-0.020738835
116	0x3b64b7db	0.0034899625
117	0x3d04f5c6	0.03246095
118	0xbcdb6fa9	-0.026786642
119	0xbc5571a4	-0.013027582
120	0xbd4fcad0	-0.050730526
121	0x3ca571c6	0.020195853
122	0xbd38a112	-0.045075484
123	0x3bb38058	0.0054779463
124	0x3b880df1	0.0041520526
125	0xbcb4669d	-0.022021586
126	0xbc374f1e	-0.011188297
127	0x3ce4f1a8	0.027947262

fc2.weight f4 [64, 128]
0	0xbd49bd8b	-0.049253028
1	0x3d6c4992	0.05768735
2	0xbdaaf592	-0.0834762
3	0xbd33261b	-0.043737512
4	0xbd8f96fc	-0.0701122
5	0xbd4c1580	-0.04982519
6	0xbba62037	-0.0050697583
7	0xbd6cb4b7	-0.05778953
8	0xbc924f82	-0.017860178
9	0xbb56ff4a	-0.0032805973
10	0xbd062ea1	-0.032759313
11	0x3caf81d8	0.021424219
12	0xbd3848aa	-0.044991173
13	0xbdcf221e	-0.10113929
14	0x3d7ef746	0.062247537
15	0x3ca20b30	0.019780725
16	0x3d502f90	0.05082661
17	0x3db4180b	0.08793648
18	0xbcf2cb35	-0.029637912
19	0xbd8edca6	-0.06975679
20	0xbd127424	-0.03575529
21	0xbd6cf810	-0.05785376
22	0x3c92b27c	0.017907374
23	0xbba1cfe0	-0.0049381107
24	0x3da42193	0.08014216
25	0x3d4f220a	0.05056957
26	0xbc89b7b0	-0.016811222
27	0xbdbf2b5b	-0.09334441
28	0xbd69c59d	-0.057073224
29	0x3d28e835	0.041237075
30	0x3d885001	0.066558845
31	0x3cd8b623	0.026454037
32	0xbd458da9	-0.0482308
33	0xbcfe85ca	-0.031069655
34	0xbd518483	-0.051151764
35	0xbb2852f6	-0.0025684214
36	0x3c480895	0.012209077
37	0xbd8a9bfd	-0.06768034
38	0xbcdf7144	-0.027275689
39	0xbda3727f	-0.07980823
40	0xbdbf4902	-0.09340097
41	0x3d229b0e	0.039698653
42	0xbd9e6685	-0.07734398
43	0xbd02fe92	-0.03198106
44	0xba525100	-0.0008022934
45	0x3d69a6ab	0.057043713
46	0x3d6ad22b	0.057329338
47	0x3d8d6b5d	0.069052435
48	0x3c54f023	0.012996706
49	0xbd84bc75	-0.06481258
50	0x3d1b16d3	0.037863564
51	0x3b9eb470	0.004843287
52	0xbd67dc11	-0.056606356
53	0xbd879e88	-0.06622034
54	0x3ccf00cc	0.025268935
55	0x3da742b7	0.08167022
56	0x3d9bc3dd	0.07605717
57	0xbd98f5fd	-0.074687935
58	0x3d456882	0.04819537
59	0xbd2682c5	-0.040652055
60	0xbd7e4b06	-0.062083267
61	0xbc8b5e7c	-0.017012827
62	0x3d7be9d5	0.061502296
63	0xbd6823a9	-0.056674633
64	0x3c97c9d0	0.018528849
65	0x3d67c77b	0.056586724
66	0x3be868ec	0.007092586
67	0x3c9bda94	0.019025125
68	0xbdc679ac	-0.09691176
69	0x3c72a630	0.01481013
70	0xbcdc074a	-0.026858944
71	0x3d880f4f	0.06643545
72	0xb9ffd700	-0.00048797578
73	0xbc609b39	-0.013708883
74	0xbd27de45	-0.040983457
75	0xbde1be06	-0.11022572
76	0xbd9881ae	-0.074466094
77	0xbdbb13a6	-0.09134607
78	0xbca144cc	-0.019686125
79	0xbd956d3f	-0.07296228
80	0xbd946827	-0.07246428
81	0x3d36295e	0.044473045
82	0xbda4cbcd	-0.080466844
83	0xbcc207f9	-0.023685442
84	0x3d158ce1	0.036511306
85	0xbd7faa5d	-0.06241833
86	0xbc23e869	-0.010004141
87	0xbd890d84	-0.06692031
88	0x3b351ca0	0.002763547
89	0xbd842326	-0.064520165
90	0xbdaa87d9	-0.08326692
91	0x3d5f74ca	0.054554738
92	0xbd4d4f79	-0.05012462
93	0x3d02c48e	0.03192573
94	0xbd47e56b	-0.048802774
95	0xbb54e460	-0.0032484755
96	0xbc9d9fc8	-0.019241229
97	0x3d3c7f18	0.046019644
98	0xbbdacbe0	-0.006677136
99	0xbdb2ac3b	-0.087242566
100	0x3d8869a7	0.066607766
101	0x3ccfe720	0.025378764
102	0x3d8ca994	0.06868282
103	0xbdaed049	-0.08535821
104	0xbce02a34	-0.027363874
105	0x3c98b9b4	0.018643238
106	0xbd9fedee	-0.07809053
107	0xbda15139	-0.0787682
108	0xbd8450b6	-0.06460707
109	0xbd9095d7	-0.0705983
110	0xbd26b24b	-0.040697377
111	0x3d4d7f0e	0.050169997
112	0x3d07951b	0.033101182
113	0x3c6a05a8	0.014283575
114	0xbd2ce915	-0.04221447
115	0xbd91782a	-0.071029976
116	0xbccc06dc	-0.024905615
117	0xbcc194d8	-0.023630545
118	0x3d1097d2	0.035301037
119	0xbd9e5ed1	-0.077329285
120	0xbda6f8c6	-0.081529185
121	0x3cda242c	0.026628576
122	0xbdb91130	-0.090364814
123	0xbc7d48e8	-0.015459277
124	0x3d7d7474	0.061878636
125	0x3da94bc9	0.08266408
126	0xbd9a0c71	-0.07521904
127	0x3b933060	0.0044918507
128	0xbe873e6c	-0.26414812
129	0xbd5e83b7	-0.05432483
130	0x3dff89e5	0.12477473
131	0xbda0446d	-0.07825551
132	0xbd7a8545	-0.061162252
133	0xbc4ffff8	-0.012695305
134	0x3c05edc7	0.008174366
135	0x3d3bb267	0.045824435
136	0x3d923af7	0.07140153
137	0x3e8bda84	0.27315152
138	0x3d220ae0	0.039561152
139	0xbca6e9e8	-0.020375207
140	0x3dcba111	0.0994283
141	0x3ccaf44f	0.024774699
142	0xbd127e18	-0.035764784
143	0x3d1e0cad	0.038586307
144	0xbe6648a2	-0.22488645
145	0x3d8f676b	0.07002147
146	0xbc8c82f4	-0.017152287
147	0x3e88bd65	0.26706997
148	0xbe7d5a21	-0.24741413
149	0xbe51dfb8	-0.20495498
150	0xbd5a443b	-0.053287726
151	0xbd7da4fc	-0.06192492
152	0xbd24ffd4	-0.04028304
153	0x3b03e2e0	0.0020124242
154	0xbd1424dd	-0.036167968
155	0xbe243851	-0.16037108
156	0x3ce1563a	0.027506936
157	0xbb040da2	-0.0020149727
158	0xbea13721	-0.31487373
159	0x3d4d3cbc	0.05010675
160	0xbe63c590	-0.22243333
161	0x3da5f707	0.08103757
162	0x3e0d81ea	0.1381909
163	0x3eb0ba16	0.34516972
164	0x3cb4d0bb	0.022072187
165	0xbe182192	-0.14856556
166	0x3d63c492	0.055607386
167	0x3d93d213	0.07217803
168	0xbe102359	-0.14075984
169	0xbda41457	-0.08011692
170	0xbe635c15	-0.22203095
171	0x3d12e36f	0.03586143
172	0xbd1f9403	-0.038959514
173	0x3d886179	0.066592164
174	0x3e1ff833	0.15622024
175	0x3d4db10a	0.050217666
176	0xbe997b60	-0.2997694
177	0xbe280966	-0.16409835
178	0xbeba6e60	-0.36412334
179	0x3d421cda	0.047390796
180	0x398a8360	0.00026419293
181	0xbd86c077	-0.065796785
182	0x3d91925d	0.07107995
183	0x3c2600f8	0.010132067
184	0x3cfc097c	0.030766241
185	0x3d9bd7f4	0.07609549
186	0xbd8a69b9	-0.06758446
187	0x3d26759e	0.040639512
188	0xbdaeb2d1	-0.085302
189	0x3c6ec690	0.014573708
190	0xbeac15c9	-0.3361037
191	0x3d99999d	0.075000025
192	0x3c2910a8	0.010318913
193	0xbf4c8f13	-0.79905814
194	0xbdf5e290	-0.12006104
195	0x3e811b77	0.25216267
196	0xbec9f66e	-0.39445823
197	0xbe500aab	-0.2031657
198	0xbe0feec9	-0.14055933
199	0x3b6387c0	0.0034718364
200	0x3c9af5a8	0.018915966
201	0x3e02f39b	0.1278824
202	0xbd6093ae	-0.05482834
203	0x3d2dd70b	0.04244141
204	0x3ce53fd4	0.027984537
205	0xbc582b93	-0.013193983
206	0x3caea338	0.021318063
207	0x3ea6e373	0.32595405
208	0x3cc35fae	0.023849335
209	0x3d95fad7	0.073232345
210	0xbdb4e288	-0.0883227
211	0xbfa499c0	-1.2859421
212	0x3d7710e2	0.060318835
213	0x3e9bf3c7	0.30459425
214	0xbe9c4687	-0.30522558
215	0x3d8d4fb5	0.068999685
216	0xbb8f8e00	-0.0043809414
217	0x3cdeda48	0.027203694
218	0xbd97c4db	-0.07410594
219	0xbbcc76b0	-0.0062397346
220	0xbe7fd61b	-0.24984019
221	0x3c147b70	0.009062633
222	0xbcf3f8db	-0.02978175
223	0x3d3e318e	0.046433978
224	0xbeea4c65	-0.4576141
225	0x3c3114c0	0.01080817
226	0x3bed30e0	0.0072384924
227	0xbd1f6a20	-0.038919568
228	0xbdb36aa2	-0.08760573
229	0x3c9eadee	0.019370046
230	0xbeaf5520	-0.34244633
231	0xbcc03ecc	-0.023467444
232	0xbde926c0	-0.11384344
233	0xbd95b898	-0.07310599
234	0xbec46741	-0.38360026
235	0x3d9c608c	0.07635602
236	0x3d750156	0.059815727
237	0xbd31d8d9	-0.043419693
238	0x3d97f4aa	0.07419713
239	0xbdcd3b9d	-0.10021136
240	0x3f90aba3	1.1302379
241	0xbd5e0de2	-0.05421246
242	0xbd2e77b4	-0.042594627
243	0x3da38ee7	0.07986241
244	0xbe58ea69	-0.2118317
245	0x3cfe10d0	0.031013876
246	0xbd7f7c8e	-0.062374644
247	0x3d70d042	0.05879236
248	0xbd272875	-0.040810067
249	0x3b8dbb20	0.0043252856
250	0x3bf0c248	0.007347379
251	0x3d4ae082	0.049530514
252	0xbe327537	-0.17427526
253	0xbdcbea6d	-0.099568225
254	0xbcc70c33	-0.02429781
255	0x3da65ddd	0.08123372

fc2.bias f4 [64]
0	0xbd47509b	-0.048660856
1	0xbc53a6b4	-0.012918163
2	0xbc99e21d	-0.018784577
3	0xbdbbe3d5	-0.09174315
4	0xbc63be68	-0.013900377
5	0xbddae1ff	-0.106876366
6	0x3c607b60	0.01370129
7	0xbcac04e5	-0.020998428
8	0xbce88aab	-0.028386435
9	0xbeaf54cf	-0.3424439
10	0x3d4f4d16	0.050610624
11	0xbda8cdcc	-0.08242378
12	0xbc3404d8	-0.010987483
13	0xbdcd15f2	-0.10013951
14	0x3dc02c24	0.09383419
15	0xbd101c39	-0.035183165
16	0x3d0e4ed5	0.03474315
17	0xbd32a09b	-0.043610197
18	0xbd97e258	-0.074162185
19	0x3e145fe8	0.1448971
20	0xbd8afa8d	-0.0678607
21	0x3cf1c3b9	0.029512273
22	0xbc735b11	-0.014853255
23	0x3d5ed2a6	0.05440011
24	0xbd934640	-0.071911335
25	0x3d93f430	0.072243094
26	0x3dc305c4	0.09522584
27	0xbb9eba9d	-0.0048440234
28	0xbd575b48	-0.052577287
29	0x3dfb3602	0.122661605
30	0x3e6a48a5	0.22879274
31	0x3d85a9e3	0.06526544
32	0xbc9cc0df	-0.019134937
33	0x3df58176	0.11987583
34	0xbc82d6d2	-0.015971575
35	0xbed08cc5	-0.407324
36	0x3d64205e	0.05569493
37	0xbd170855	-0.03687318
38	0x3d9baf88	0.07601839
39	0xbc18e274	-0.009331334
40	0xbcb48463	-0.022035783
41	0xbd6ca195	-0.057771284
42	0x3ccd93f8	0.025094971
43	0xbc18cc63	-0.009326073
44	0xbd90513c	-0.07046744
45	0xbc229ddb	-0.009925331
46	0xbc969885	-0.018383274
47	0x3e388bec	0.18022126
48	0x3e0a5c0c	0.13511676
49	0xbd95ec5f	-0.07320475
50	0x3c75a834	0.014993716
51	0xbd905b3f	-0.07048654
52	0xbdb09aa8	-0.08623248
53	0x383bcdff	4.4776123e-05
54	0x3b63ee36	0.0034779436
55	0xbd52be5c	-0.051451072
56	0xbd116708	-0.03549865
57	0x3d19bfc5	0.0375364
58	0xbd4bd840	-0.04976678
59	0x3e0143e1	0.1262355
60	0x3d85fcc5	0.065423526
61	0x3d82bbca	0.06383474
62	0x3d6bddac	0.05758445
63	0xbcf25c0b	-0.029584905

fc3.weight f4 [2, 64]
0	0x3d012cc3	0.03153683
1	0x3f6bd5f6	0.92123353
2	0xbd285a26	-0.041101597
3	0xbd30634e	-0.043063454
4	0xbf87bbaf	-1.0604151
5	0xbd7eb859	-0.062187526
6	0x3f7b185e	0.98084056
7	0xbdce195a	-0.10063429
8	0x3d0fc0a8	0.03509584
9	0x3fc717b2	1.5554106
10	0x3f151d6c	0.5824802
11	0x3dbb6aa4	0.091511995
12	0x3d852bc1	0.06502486
13	0xbbdcf744	-0.0067433435
14	0x3f950aa1	1.1643869
15	0xbd226802	-0.03964997
16	0x3f4dde0c	0.8041694
17	0xbd570744	-0.052497163
18	0xbd5d5d6c	-0.054044172
19	0xbee54ef7	-0.44786808
20	0xbdd76cc6	-0.10518794
21	0xbf0dec7d	-0.5543898
22	0x3d8b503e	0.06802414
23	0xbef48a89	-0.47761944
24	0x3d49da80	0.049280643
25	0xbefc99f8	-0.4933622
26	0x3f364fd7	0.71215576
27	0xbd058426	-0.03259673
28	0x3d99e96d	0.075152256
29	0xbfae6b65	-1.3626524
30	0xbfba2be6	-1.4544647
31	0xbee7e15f	-0.45289132
32	0xbd98380b	-0.07432564
33	0x3f31dd0e	0.6947793
34	0x3f6f5f44	0.9350474
35	0x3feaf377	1.835555
36	0xbefa4196	-0.48878163
37	0xbd9c39ae	-0.07628189
38	0xbee1c5a2	-0.44096094
39	0xbf430d19	-0.7619186
40	0xbd126275	-0.035738427
41	0x3cd432f8	0.02590321
42	0x3f3c481a	0.7354752
43	0xbd893115	-0.06698815
44	0x3ce73ba9	0.02822669
45	0xbf4cd382	-0.80010235
46	0xbf84bc08	-1.0369883
47	0x3fbe32a5	1.4859205
48	0xbf045118	-0.5168624
49	0x3da9667f	0.08271503
50	0x3f3ae6f2	0.73008645
51	0x3da4476a	0.08021434
52	0xbdef1972	-0.11674775
53	0x3f774a27	0.9659752
54	0x3f5f6705	0.8726657
55	0xbdb2eaaf	-0.087361686
56	0x3fec4cbe	1.846092
57	0x3f407d68	0.75191355
58	0x3d3717f6	0.044700585
59	0x3f21e2ee	0.6323689
60	0xbf053012	-0.52026474
61	0xbf0d5bae	-0.5521802
62	0xbeff8ba2	-0.4991122
63	0xbdac6d8d	-0.08419333
64	0x3dac5280	0.08414173
65	0xbf584098	-0.8447356
66	0xbc2236d0	-0.009900764
67	0xbd1a4346	-0.037661813
68	0x3f9593a8	1.1685686
69	0x3d95bb0b	0.07311066
70	0xbf6aae74	-0.91672444
71	0xbdc11fec	-0.09429917
72	0x3c8fdaa4	0.01756031
73	0xbfb65294	-1.4243951
74	0xbf4b2299	-0.79349667
75	0x3dad4d14	0.08461967
76	0x3d98c21a	0.07458897
77	0xbca0aa26	-0.019612383
78	0xbf9a2102	-1.2041323
79	0xbc267809	-0.010160455
80	0xbf406d7b	-0.75167054
81	0xbd0c33f8	-0.03422925
82	0x3dd07e16	0.10180299
83	0x3efd5bcc	0.49484098
84	0xbdd6a59c	-0.10480806
85	0x3efde4a7	0.4958851
86	0xbdba4f7e	-0.09097193
87	0x3f021c0c	0.50824046
88	0x3d12bb35	0.035823066
89	0x3ef8b13f	0.48572728
90	0xbf31c47c	-0.69440436
91	0xbdaed5d2	-0.08536877
92	0x3a71eb92	0.0009228523
93	0x3fb45888	1.4089518
94	0x3fcab2a5	1.5835768
95	0x3f19adc4	0.6003077
96	0x3a1200d8	0.0005569584
97	0xbf38e3e9	-0.72222763
98	0xbf8e366b	-1.1110357
99	0xbfebf1c1	-1.8433152
100	0x3ed800cd	0.4218811
101	0xbd8932db	-0.06699153
102	0x3eea6e96	0.45787495
103	0x3f2030fb	0.6257474
104	0xbc967fa5	-0.018371413
105	0x3db3a80c	0.08772287
106	0xbf390c7c	-0.72284675
107	0xbd20689f	-0.039162274
108	0x3cff99b2	0.031201217
109	0x3f755c7a	0.95844233
110	0x3f648623	0.89267176
111	0xbfc3fc8c	-1.5311446
112	0x3eb576cf	0.35442206
113	0x3dbfa409	0.09357459
114	0xbf525486	-0.8216022
115	0xbddfb346	-0.109228656
116	0xbdd3cd40	-0.10341883
117	0xbf5044eb	-0.8135516
118	0xbf426939	-0.7594181
119	0xbcec92b9	-0.028878557
120	0xbffbdb7b	-1.9676355
121	0xbf4e13fe	-0.80499256
122	0xbba13f64	-0.004920887
123	0xbf4b480f	-0.7940683
124	0x3f06b912	0.52626145
125	0x3ef511df	0.47865197
126	0x3ee43f5b	0.44579586
127	0xbd832a23	-0.06404521

fc3.bias f4 [2]
0	0xbdddc5be	-0.10828732
1	0xbcd505aa	-0.026003677
